saved_model_schema_version: 1
meta_graphs {
  meta_info_def {
    stripped_op_list {
      op {
        name: "Add"
        input_arg {
          name: "x"
          type_attr: "T"
        }
        input_arg {
          name: "y"
          type_attr: "T"
        }
        output_arg {
          name: "z"
          type_attr: "T"
        }
        attr {
          name: "T"
          type: "type"
          allowed_values {
            list {
              type: DT_BFLOAT16
              type: DT_HALF
              type: DT_FLOAT
              type: DT_DOUBLE
              type: DT_UINT8
              type: DT_INT8
              type: DT_INT16
              type: DT_INT32
              type: DT_INT64
              type: DT_COMPLEX64
              type: DT_COMPLEX128
              type: DT_STRING
            }
          }
        }
      }
      op {
        name: "AddN"
        input_arg {
          name: "inputs"
          type_attr: "T"
          number_attr: "N"
        }
        output_arg {
          name: "sum"
          type_attr: "T"
        }
        attr {
          name: "N"
          type: "int"
          has_minimum: true
          minimum: 1
        }
        attr {
          name: "T"
          type: "type"
          allowed_values {
            list {
              type: DT_FLOAT
              type: DT_DOUBLE
              type: DT_INT32
              type: DT_UINT8
              type: DT_INT16
              type: DT_INT8
              type: DT_COMPLEX64
              type: DT_INT64
              type: DT_QINT8
              type: DT_QUINT8
              type: DT_QINT32
              type: DT_BFLOAT16
              type: DT_UINT16
              type: DT_COMPLEX128
              type: DT_HALF
              type: DT_UINT32
              type: DT_UINT64
              type: DT_VARIANT
            }
          }
        }
        is_aggregate: true
        is_commutative: true
      }
      op {
        name: "Assign"
        input_arg {
          name: "ref"
          type_attr: "T"
          is_ref: true
        }
        input_arg {
          name: "value"
          type_attr: "T"
        }
        output_arg {
          name: "output_ref"
          type_attr: "T"
          is_ref: true
        }
        attr {
          name: "T"
          type: "type"
        }
        attr {
          name: "validate_shape"
          type: "bool"
          default_value {
            b: true
          }
        }
        attr {
          name: "use_locking"
          type: "bool"
          default_value {
            b: true
          }
        }
        allows_uninitialized_input: true
      }
      op {
        name: "AssignVariableOp"
        input_arg {
          name: "resource"
          type: DT_RESOURCE
        }
        input_arg {
          name: "value"
          type_attr: "dtype"
        }
        attr {
          name: "dtype"
          type: "type"
        }
        is_stateful: true
      }
      op {
        name: "BiasAdd"
        input_arg {
          name: "value"
          type_attr: "T"
        }
        input_arg {
          name: "bias"
          type_attr: "T"
        }
        output_arg {
          name: "output"
          type_attr: "T"
        }
        attr {
          name: "T"
          type: "type"
          allowed_values {
            list {
              type: DT_FLOAT
              type: DT_DOUBLE
              type: DT_INT32
              type: DT_UINT8
              type: DT_INT16
              type: DT_INT8
              type: DT_COMPLEX64
              type: DT_INT64
              type: DT_QINT8
              type: DT_QUINT8
              type: DT_QINT32
              type: DT_BFLOAT16
              type: DT_UINT16
              type: DT_COMPLEX128
              type: DT_HALF
              type: DT_UINT32
              type: DT_UINT64
            }
          }
        }
        attr {
          name: "data_format"
          type: "string"
          default_value {
            s: "NHWC"
          }
          allowed_values {
            list {
              s: "NHWC"
              s: "NCHW"
            }
          }
        }
      }
      op {
        name: "Bucketize"
        input_arg {
          name: "input"
          type_attr: "T"
        }
        output_arg {
          name: "output"
          type: DT_INT32
        }
        attr {
          name: "T"
          type: "type"
          allowed_values {
            list {
              type: DT_INT32
              type: DT_INT64
              type: DT_FLOAT
              type: DT_DOUBLE
            }
          }
        }
        attr {
          name: "boundaries"
          type: "list(float)"
        }
      }
      op {
        name: "Cast"
        input_arg {
          name: "x"
          type_attr: "SrcT"
        }
        output_arg {
          name: "y"
          type_attr: "DstT"
        }
        attr {
          name: "SrcT"
          type: "type"
        }
        attr {
          name: "DstT"
          type: "type"
        }
        attr {
          name: "Truncate"
          type: "bool"
          default_value {
            b: false
          }
        }
      }
      op {
        name: "ConcatV2"
        input_arg {
          name: "values"
          type_attr: "T"
          number_attr: "N"
        }
        input_arg {
          name: "axis"
          type_attr: "Tidx"
        }
        output_arg {
          name: "output"
          type_attr: "T"
        }
        attr {
          name: "N"
          type: "int"
          has_minimum: true
          minimum: 2
        }
        attr {
          name: "T"
          type: "type"
        }
        attr {
          name: "Tidx"
          type: "type"
          default_value {
            type: DT_INT32
          }
          allowed_values {
            list {
              type: DT_INT32
              type: DT_INT64
            }
          }
        }
      }
      op {
        name: "Const"
        output_arg {
          name: "output"
          type_attr: "dtype"
        }
        attr {
          name: "value"
          type: "tensor"
        }
        attr {
          name: "dtype"
          type: "type"
        }
      }
      op {
        name: "DecodeCSV"
        input_arg {
          name: "records"
          type: DT_STRING
        }
        input_arg {
          name: "record_defaults"
          type_list_attr: "OUT_TYPE"
        }
        output_arg {
          name: "output"
          type_list_attr: "OUT_TYPE"
        }
        attr {
          name: "OUT_TYPE"
          type: "list(type)"
          has_minimum: true
          minimum: 1
          allowed_values {
            list {
              type: DT_FLOAT
              type: DT_DOUBLE
              type: DT_INT32
              type: DT_INT64
              type: DT_STRING
            }
          }
        }
        attr {
          name: "field_delim"
          type: "string"
          default_value {
            s: ","
          }
        }
        attr {
          name: "use_quote_delim"
          type: "bool"
          default_value {
            b: true
          }
        }
        attr {
          name: "na_value"
          type: "string"
          default_value {
            s: ""
          }
        }
        attr {
          name: "select_cols"
          type: "list(int)"
          default_value {
            list {
            }
          }
        }
      }
      op {
        name: "Elu"
        input_arg {
          name: "features"
          type_attr: "T"
        }
        output_arg {
          name: "activations"
          type_attr: "T"
        }
        attr {
          name: "T"
          type: "type"
          allowed_values {
            list {
              type: DT_HALF
              type: DT_BFLOAT16
              type: DT_FLOAT
              type: DT_DOUBLE
            }
          }
        }
      }
      op {
        name: "Equal"
        input_arg {
          name: "x"
          type_attr: "T"
        }
        input_arg {
          name: "y"
          type_attr: "T"
        }
        output_arg {
          name: "z"
          type: DT_BOOL
        }
        attr {
          name: "T"
          type: "type"
          allowed_values {
            list {
              type: DT_BFLOAT16
              type: DT_HALF
              type: DT_FLOAT
              type: DT_DOUBLE
              type: DT_UINT8
              type: DT_INT8
              type: DT_INT16
              type: DT_INT32
              type: DT_INT64
              type: DT_COMPLEX64
              type: DT_QUINT8
              type: DT_QINT8
              type: DT_QINT32
              type: DT_STRING
              type: DT_BOOL
              type: DT_COMPLEX128
            }
          }
        }
        is_commutative: true
      }
      op {
        name: "ExpandDims"
        input_arg {
          name: "input"
          type_attr: "T"
        }
        input_arg {
          name: "dim"
          type_attr: "Tdim"
        }
        output_arg {
          name: "output"
          type_attr: "T"
        }
        attr {
          name: "T"
          type: "type"
        }
        attr {
          name: "Tdim"
          type: "type"
          default_value {
            type: DT_INT32
          }
          allowed_values {
            list {
              type: DT_INT32
              type: DT_INT64
            }
          }
        }
      }
      op {
        name: "GatherNd"
        input_arg {
          name: "params"
          type_attr: "Tparams"
        }
        input_arg {
          name: "indices"
          type_attr: "Tindices"
        }
        output_arg {
          name: "output"
          type_attr: "Tparams"
        }
        attr {
          name: "Tparams"
          type: "type"
        }
        attr {
          name: "Tindices"
          type: "type"
          allowed_values {
            list {
              type: DT_INT32
              type: DT_INT64
            }
          }
        }
      }
      op {
        name: "GatherV2"
        input_arg {
          name: "params"
          type_attr: "Tparams"
        }
        input_arg {
          name: "indices"
          type_attr: "Tindices"
        }
        input_arg {
          name: "axis"
          type_attr: "Taxis"
        }
        output_arg {
          name: "output"
          type_attr: "Tparams"
        }
        attr {
          name: "Tparams"
          type: "type"
        }
        attr {
          name: "Tindices"
          type: "type"
          allowed_values {
            list {
              type: DT_INT32
              type: DT_INT64
            }
          }
        }
        attr {
          name: "Taxis"
          type: "type"
          allowed_values {
            list {
              type: DT_INT32
              type: DT_INT64
            }
          }
        }
      }
      op {
        name: "GreaterEqual"
        input_arg {
          name: "x"
          type_attr: "T"
        }
        input_arg {
          name: "y"
          type_attr: "T"
        }
        output_arg {
          name: "z"
          type: DT_BOOL
        }
        attr {
          name: "T"
          type: "type"
          allowed_values {
            list {
              type: DT_FLOAT
              type: DT_DOUBLE
              type: DT_INT32
              type: DT_UINT8
              type: DT_INT16
              type: DT_INT8
              type: DT_INT64
              type: DT_BFLOAT16
              type: DT_UINT16
              type: DT_HALF
              type: DT_UINT32
              type: DT_UINT64
            }
          }
        }
      }
      op {
        name: "HashTableV2"
        output_arg {
          name: "table_handle"
          type: DT_RESOURCE
        }
        attr {
          name: "container"
          type: "string"
          default_value {
            s: ""
          }
        }
        attr {
          name: "shared_name"
          type: "string"
          default_value {
            s: ""
          }
        }
        attr {
          name: "use_node_name_sharing"
          type: "bool"
          default_value {
            b: false
          }
        }
        attr {
          name: "key_dtype"
          type: "type"
        }
        attr {
          name: "value_dtype"
          type: "type"
        }
        is_stateful: true
      }
      op {
        name: "HistogramSummary"
        input_arg {
          name: "tag"
          type: DT_STRING
        }
        input_arg {
          name: "values"
          type_attr: "T"
        }
        output_arg {
          name: "summary"
          type: DT_STRING
        }
        attr {
          name: "T"
          type: "type"
          default_value {
            type: DT_FLOAT
          }
          allowed_values {
            list {
              type: DT_FLOAT
              type: DT_DOUBLE
              type: DT_INT32
              type: DT_UINT8
              type: DT_INT16
              type: DT_INT8
              type: DT_INT64
              type: DT_BFLOAT16
              type: DT_UINT16
              type: DT_HALF
              type: DT_UINT32
              type: DT_UINT64
            }
          }
        }
      }
      op {
        name: "Identity"
        input_arg {
          name: "input"
          type_attr: "T"
        }
        output_arg {
          name: "output"
          type_attr: "T"
        }
        attr {
          name: "T"
          type: "type"
        }
      }
      op {
        name: "LookupTableFindV2"
        input_arg {
          name: "table_handle"
          type: DT_RESOURCE
        }
        input_arg {
          name: "keys"
          type_attr: "Tin"
        }
        input_arg {
          name: "default_value"
          type_attr: "Tout"
        }
        output_arg {
          name: "values"
          type_attr: "Tout"
        }
        attr {
          name: "Tin"
          type: "type"
        }
        attr {
          name: "Tout"
          type: "type"
        }
        is_stateful: true
      }
      op {
        name: "LookupTableImportV2"
        input_arg {
          name: "table_handle"
          type: DT_RESOURCE
        }
        input_arg {
          name: "keys"
          type_attr: "Tin"
        }
        input_arg {
          name: "values"
          type_attr: "Tout"
        }
        attr {
          name: "Tin"
          type: "type"
        }
        attr {
          name: "Tout"
          type: "type"
        }
        is_stateful: true
      }
      op {
        name: "MatMul"
        input_arg {
          name: "a"
          type_attr: "T"
        }
        input_arg {
          name: "b"
          type_attr: "T"
        }
        output_arg {
          name: "product"
          type_attr: "T"
        }
        attr {
          name: "transpose_a"
          type: "bool"
          default_value {
            b: false
          }
        }
        attr {
          name: "transpose_b"
          type: "bool"
          default_value {
            b: false
          }
        }
        attr {
          name: "T"
          type: "type"
          allowed_values {
            list {
              type: DT_BFLOAT16
              type: DT_HALF
              type: DT_FLOAT
              type: DT_DOUBLE
              type: DT_INT32
              type: DT_COMPLEX64
              type: DT_COMPLEX128
            }
          }
        }
      }
      op {
        name: "Maximum"
        input_arg {
          name: "x"
          type_attr: "T"
        }
        input_arg {
          name: "y"
          type_attr: "T"
        }
        output_arg {
          name: "z"
          type_attr: "T"
        }
        attr {
          name: "T"
          type: "type"
          allowed_values {
            list {
              type: DT_BFLOAT16
              type: DT_HALF
              type: DT_FLOAT
              type: DT_DOUBLE
              type: DT_INT32
              type: DT_INT64
            }
          }
        }
        is_commutative: true
      }
      op {
        name: "Mean"
        input_arg {
          name: "input"
          type_attr: "T"
        }
        input_arg {
          name: "reduction_indices"
          type_attr: "Tidx"
        }
        output_arg {
          name: "output"
          type_attr: "T"
        }
        attr {
          name: "keep_dims"
          type: "bool"
          default_value {
            b: false
          }
        }
        attr {
          name: "T"
          type: "type"
          allowed_values {
            list {
              type: DT_FLOAT
              type: DT_DOUBLE
              type: DT_INT32
              type: DT_UINT8
              type: DT_INT16
              type: DT_INT8
              type: DT_COMPLEX64
              type: DT_INT64
              type: DT_QINT8
              type: DT_QUINT8
              type: DT_QINT32
              type: DT_BFLOAT16
              type: DT_UINT16
              type: DT_COMPLEX128
              type: DT_HALF
              type: DT_UINT32
              type: DT_UINT64
            }
          }
        }
        attr {
          name: "Tidx"
          type: "type"
          default_value {
            type: DT_INT32
          }
          allowed_values {
            list {
              type: DT_INT32
              type: DT_INT64
            }
          }
        }
      }
      op {
        name: "MergeV2Checkpoints"
        input_arg {
          name: "checkpoint_prefixes"
          type: DT_STRING
        }
        input_arg {
          name: "destination_prefix"
          type: DT_STRING
        }
        attr {
          name: "delete_old_dirs"
          type: "bool"
          default_value {
            b: true
          }
        }
        is_stateful: true
      }
      op {
        name: "Minimum"
        input_arg {
          name: "x"
          type_attr: "T"
        }
        input_arg {
          name: "y"
          type_attr: "T"
        }
        output_arg {
          name: "z"
          type_attr: "T"
        }
        attr {
          name: "T"
          type: "type"
          allowed_values {
            list {
              type: DT_BFLOAT16
              type: DT_HALF
              type: DT_FLOAT
              type: DT_DOUBLE
              type: DT_INT32
              type: DT_INT64
            }
          }
        }
        is_commutative: true
      }
      op {
        name: "Mul"
        input_arg {
          name: "x"
          type_attr: "T"
        }
        input_arg {
          name: "y"
          type_attr: "T"
        }
        output_arg {
          name: "z"
          type_attr: "T"
        }
        attr {
          name: "T"
          type: "type"
          allowed_values {
            list {
              type: DT_BFLOAT16
              type: DT_HALF
              type: DT_FLOAT
              type: DT_DOUBLE
              type: DT_UINT8
              type: DT_INT8
              type: DT_UINT16
              type: DT_INT16
              type: DT_INT32
              type: DT_INT64
              type: DT_COMPLEX64
              type: DT_COMPLEX128
            }
          }
        }
        is_commutative: true
      }
      op {
        name: "NoOp"
      }
      op {
        name: "NotEqual"
        input_arg {
          name: "x"
          type_attr: "T"
        }
        input_arg {
          name: "y"
          type_attr: "T"
        }
        output_arg {
          name: "z"
          type: DT_BOOL
        }
        attr {
          name: "T"
          type: "type"
          allowed_values {
            list {
              type: DT_BFLOAT16
              type: DT_HALF
              type: DT_FLOAT
              type: DT_DOUBLE
              type: DT_UINT8
              type: DT_INT8
              type: DT_INT16
              type: DT_INT32
              type: DT_INT64
              type: DT_COMPLEX64
              type: DT_QUINT8
              type: DT_QINT8
              type: DT_QINT32
              type: DT_STRING
              type: DT_BOOL
              type: DT_COMPLEX128
            }
          }
        }
        is_commutative: true
      }
      op {
        name: "OneHot"
        input_arg {
          name: "indices"
          type_attr: "TI"
        }
        input_arg {
          name: "depth"
          type: DT_INT32
        }
        input_arg {
          name: "on_value"
          type_attr: "T"
        }
        input_arg {
          name: "off_value"
          type_attr: "T"
        }
        output_arg {
          name: "output"
          type_attr: "T"
        }
        attr {
          name: "axis"
          type: "int"
          default_value {
            i: -1
          }
        }
        attr {
          name: "T"
          type: "type"
        }
        attr {
          name: "TI"
          type: "type"
          default_value {
            type: DT_INT64
          }
          allowed_values {
            list {
              type: DT_UINT8
              type: DT_INT32
              type: DT_INT64
            }
          }
        }
      }
      op {
        name: "Pack"
        input_arg {
          name: "values"
          type_attr: "T"
          number_attr: "N"
        }
        output_arg {
          name: "output"
          type_attr: "T"
        }
        attr {
          name: "N"
          type: "int"
          has_minimum: true
          minimum: 1
        }
        attr {
          name: "T"
          type: "type"
        }
        attr {
          name: "axis"
          type: "int"
          default_value {
            i: 0
          }
        }
      }
      op {
        name: "Placeholder"
        output_arg {
          name: "output"
          type_attr: "dtype"
        }
        attr {
          name: "dtype"
          type: "type"
        }
        attr {
          name: "shape"
          type: "shape"
          default_value {
            shape {
              unknown_rank: true
            }
          }
        }
      }
      op {
        name: "Prod"
        input_arg {
          name: "input"
          type_attr: "T"
        }
        input_arg {
          name: "reduction_indices"
          type_attr: "Tidx"
        }
        output_arg {
          name: "output"
          type_attr: "T"
        }
        attr {
          name: "keep_dims"
          type: "bool"
          default_value {
            b: false
          }
        }
        attr {
          name: "T"
          type: "type"
          allowed_values {
            list {
              type: DT_FLOAT
              type: DT_DOUBLE
              type: DT_INT32
              type: DT_UINT8
              type: DT_INT16
              type: DT_INT8
              type: DT_COMPLEX64
              type: DT_INT64
              type: DT_QINT8
              type: DT_QUINT8
              type: DT_QINT32
              type: DT_BFLOAT16
              type: DT_UINT16
              type: DT_COMPLEX128
              type: DT_HALF
              type: DT_UINT32
              type: DT_UINT64
            }
          }
        }
        attr {
          name: "Tidx"
          type: "type"
          default_value {
            type: DT_INT32
          }
          allowed_values {
            list {
              type: DT_INT32
              type: DT_INT64
            }
          }
        }
      }
      op {
        name: "RandomUniform"
        input_arg {
          name: "shape"
          type_attr: "T"
        }
        output_arg {
          name: "output"
          type_attr: "dtype"
        }
        attr {
          name: "seed"
          type: "int"
          default_value {
            i: 0
          }
        }
        attr {
          name: "seed2"
          type: "int"
          default_value {
            i: 0
          }
        }
        attr {
          name: "dtype"
          type: "type"
          allowed_values {
            list {
              type: DT_HALF
              type: DT_BFLOAT16
              type: DT_FLOAT
              type: DT_DOUBLE
            }
          }
        }
        attr {
          name: "T"
          type: "type"
          allowed_values {
            list {
              type: DT_INT32
              type: DT_INT64
            }
          }
        }
        is_stateful: true
      }
      op {
        name: "Range"
        input_arg {
          name: "start"
          type_attr: "Tidx"
        }
        input_arg {
          name: "limit"
          type_attr: "Tidx"
        }
        input_arg {
          name: "delta"
          type_attr: "Tidx"
        }
        output_arg {
          name: "output"
          type_attr: "Tidx"
        }
        attr {
          name: "Tidx"
          type: "type"
          default_value {
            type: DT_INT32
          }
          allowed_values {
            list {
              type: DT_BFLOAT16
              type: DT_FLOAT
              type: DT_DOUBLE
              type: DT_INT32
              type: DT_INT64
            }
          }
        }
      }
      op {
        name: "Rank"
        input_arg {
          name: "input"
          type_attr: "T"
        }
        output_arg {
          name: "output"
          type: DT_INT32
        }
        attr {
          name: "T"
          type: "type"
        }
      }
      op {
        name: "ReadVariableOp"
        input_arg {
          name: "resource"
          type: DT_RESOURCE
        }
        output_arg {
          name: "value"
          type_attr: "dtype"
        }
        attr {
          name: "dtype"
          type: "type"
        }
        is_stateful: true
      }
      op {
        name: "Reshape"
        input_arg {
          name: "tensor"
          type_attr: "T"
        }
        input_arg {
          name: "shape"
          type_attr: "Tshape"
        }
        output_arg {
          name: "output"
          type_attr: "T"
        }
        attr {
          name: "T"
          type: "type"
        }
        attr {
          name: "Tshape"
          type: "type"
          default_value {
            type: DT_INT32
          }
          allowed_values {
            list {
              type: DT_INT32
              type: DT_INT64
            }
          }
        }
      }
      op {
        name: "RestoreV2"
        input_arg {
          name: "prefix"
          type: DT_STRING
        }
        input_arg {
          name: "tensor_names"
          type: DT_STRING
        }
        input_arg {
          name: "shape_and_slices"
          type: DT_STRING
        }
        output_arg {
          name: "tensors"
          type_list_attr: "dtypes"
        }
        attr {
          name: "dtypes"
          type: "list(type)"
          has_minimum: true
          minimum: 1
        }
        is_stateful: true
      }
      op {
        name: "SaveV2"
        input_arg {
          name: "prefix"
          type: DT_STRING
        }
        input_arg {
          name: "tensor_names"
          type: DT_STRING
        }
        input_arg {
          name: "shape_and_slices"
          type: DT_STRING
        }
        input_arg {
          name: "tensors"
          type_list_attr: "dtypes"
        }
        attr {
          name: "dtypes"
          type: "list(type)"
          has_minimum: true
          minimum: 1
        }
        is_stateful: true
      }
      op {
        name: "ScalarSummary"
        input_arg {
          name: "tags"
          type: DT_STRING
        }
        input_arg {
          name: "values"
          type_attr: "T"
        }
        output_arg {
          name: "summary"
          type: DT_STRING
        }
        attr {
          name: "T"
          type: "type"
          allowed_values {
            list {
              type: DT_FLOAT
              type: DT_DOUBLE
              type: DT_INT32
              type: DT_UINT8
              type: DT_INT16
              type: DT_INT8
              type: DT_INT64
              type: DT_BFLOAT16
              type: DT_UINT16
              type: DT_HALF
              type: DT_UINT32
              type: DT_UINT64
            }
          }
        }
      }
      op {
        name: "Select"
        input_arg {
          name: "condition"
          type: DT_BOOL
        }
        input_arg {
          name: "t"
          type_attr: "T"
        }
        input_arg {
          name: "e"
          type_attr: "T"
        }
        output_arg {
          name: "output"
          type_attr: "T"
        }
        attr {
          name: "T"
          type: "type"
        }
      }
      op {
        name: "Shape"
        input_arg {
          name: "input"
          type_attr: "T"
        }
        output_arg {
          name: "output"
          type_attr: "out_type"
        }
        attr {
          name: "T"
          type: "type"
        }
        attr {
          name: "out_type"
          type: "type"
          default_value {
            type: DT_INT32
          }
          allowed_values {
            list {
              type: DT_INT32
              type: DT_INT64
            }
          }
        }
      }
      op {
        name: "ShardedFilename"
        input_arg {
          name: "basename"
          type: DT_STRING
        }
        input_arg {
          name: "shard"
          type: DT_INT32
        }
        input_arg {
          name: "num_shards"
          type: DT_INT32
        }
        output_arg {
          name: "filename"
          type: DT_STRING
        }
      }
      op {
        name: "Sin"
        input_arg {
          name: "x"
          type_attr: "T"
        }
        output_arg {
          name: "y"
          type_attr: "T"
        }
        attr {
          name: "T"
          type: "type"
          allowed_values {
            list {
              type: DT_BFLOAT16
              type: DT_HALF
              type: DT_FLOAT
              type: DT_DOUBLE
              type: DT_COMPLEX64
              type: DT_COMPLEX128
            }
          }
        }
      }
      op {
        name: "Slice"
        input_arg {
          name: "input"
          type_attr: "T"
        }
        input_arg {
          name: "begin"
          type_attr: "Index"
        }
        input_arg {
          name: "size"
          type_attr: "Index"
        }
        output_arg {
          name: "output"
          type_attr: "T"
        }
        attr {
          name: "T"
          type: "type"
        }
        attr {
          name: "Index"
          type: "type"
          allowed_values {
            list {
              type: DT_INT32
              type: DT_INT64
            }
          }
        }
      }
      op {
        name: "SparseCross"
        input_arg {
          name: "indices"
          type: DT_INT64
          number_attr: "N"
        }
        input_arg {
          name: "values"
          type_list_attr: "sparse_types"
        }
        input_arg {
          name: "shapes"
          type: DT_INT64
          number_attr: "N"
        }
        input_arg {
          name: "dense_inputs"
          type_list_attr: "dense_types"
        }
        output_arg {
          name: "output_indices"
          type: DT_INT64
        }
        output_arg {
          name: "output_values"
          type_attr: "out_type"
        }
        output_arg {
          name: "output_shape"
          type: DT_INT64
        }
        attr {
          name: "N"
          type: "int"
          has_minimum: true
        }
        attr {
          name: "hashed_output"
          type: "bool"
        }
        attr {
          name: "num_buckets"
          type: "int"
          has_minimum: true
        }
        attr {
          name: "hash_key"
          type: "int"
        }
        attr {
          name: "sparse_types"
          type: "list(type)"
          has_minimum: true
          allowed_values {
            list {
              type: DT_INT64
              type: DT_STRING
            }
          }
        }
        attr {
          name: "dense_types"
          type: "list(type)"
          has_minimum: true
          allowed_values {
            list {
              type: DT_INT64
              type: DT_STRING
            }
          }
        }
        attr {
          name: "out_type"
          type: "type"
          allowed_values {
            list {
              type: DT_INT64
              type: DT_STRING
            }
          }
        }
        attr {
          name: "internal_type"
          type: "type"
          allowed_values {
            list {
              type: DT_INT64
              type: DT_STRING
            }
          }
        }
      }
      op {
        name: "SparseFillEmptyRows"
        input_arg {
          name: "indices"
          type: DT_INT64
        }
        input_arg {
          name: "values"
          type_attr: "T"
        }
        input_arg {
          name: "dense_shape"
          type: DT_INT64
        }
        input_arg {
          name: "default_value"
          type_attr: "T"
        }
        output_arg {
          name: "output_indices"
          type: DT_INT64
        }
        output_arg {
          name: "output_values"
          type_attr: "T"
        }
        output_arg {
          name: "empty_row_indicator"
          type: DT_BOOL
        }
        output_arg {
          name: "reverse_index_map"
          type: DT_INT64
        }
        attr {
          name: "T"
          type: "type"
        }
      }
      op {
        name: "SparseReshape"
        input_arg {
          name: "input_indices"
          type: DT_INT64
        }
        input_arg {
          name: "input_shape"
          type: DT_INT64
        }
        input_arg {
          name: "new_shape"
          type: DT_INT64
        }
        output_arg {
          name: "output_indices"
          type: DT_INT64
        }
        output_arg {
          name: "output_shape"
          type: DT_INT64
        }
      }
      op {
        name: "SparseSegmentMean"
        input_arg {
          name: "data"
          type_attr: "T"
        }
        input_arg {
          name: "indices"
          type_attr: "Tidx"
        }
        input_arg {
          name: "segment_ids"
          type: DT_INT32
        }
        output_arg {
          name: "output"
          type_attr: "T"
        }
        attr {
          name: "T"
          type: "type"
          allowed_values {
            list {
              type: DT_FLOAT
              type: DT_DOUBLE
            }
          }
        }
        attr {
          name: "Tidx"
          type: "type"
          default_value {
            type: DT_INT32
          }
          allowed_values {
            list {
              type: DT_INT32
              type: DT_INT64
            }
          }
        }
      }
      op {
        name: "SparseSegmentSum"
        input_arg {
          name: "data"
          type_attr: "T"
        }
        input_arg {
          name: "indices"
          type_attr: "Tidx"
        }
        input_arg {
          name: "segment_ids"
          type: DT_INT32
        }
        output_arg {
          name: "output"
          type_attr: "T"
        }
        attr {
          name: "T"
          type: "type"
          allowed_values {
            list {
              type: DT_FLOAT
              type: DT_DOUBLE
              type: DT_INT32
              type: DT_UINT8
              type: DT_INT16
              type: DT_INT8
              type: DT_INT64
              type: DT_BFLOAT16
              type: DT_UINT16
              type: DT_HALF
              type: DT_UINT32
              type: DT_UINT64
            }
          }
        }
        attr {
          name: "Tidx"
          type: "type"
          default_value {
            type: DT_INT32
          }
          allowed_values {
            list {
              type: DT_INT32
              type: DT_INT64
            }
          }
        }
      }
      op {
        name: "SparseToDense"
        input_arg {
          name: "sparse_indices"
          type_attr: "Tindices"
        }
        input_arg {
          name: "output_shape"
          type_attr: "Tindices"
        }
        input_arg {
          name: "sparse_values"
          type_attr: "T"
        }
        input_arg {
          name: "default_value"
          type_attr: "T"
        }
        output_arg {
          name: "dense"
          type_attr: "T"
        }
        attr {
          name: "validate_indices"
          type: "bool"
          default_value {
            b: true
          }
        }
        attr {
          name: "T"
          type: "type"
        }
        attr {
          name: "Tindices"
          type: "type"
          allowed_values {
            list {
              type: DT_INT32
              type: DT_INT64
            }
          }
        }
      }
      op {
        name: "Sqrt"
        input_arg {
          name: "x"
          type_attr: "T"
        }
        output_arg {
          name: "y"
          type_attr: "T"
        }
        attr {
          name: "T"
          type: "type"
          allowed_values {
            list {
              type: DT_BFLOAT16
              type: DT_HALF
              type: DT_FLOAT
              type: DT_DOUBLE
              type: DT_COMPLEX64
              type: DT_COMPLEX128
            }
          }
        }
      }
      op {
        name: "Square"
        input_arg {
          name: "x"
          type_attr: "T"
        }
        output_arg {
          name: "y"
          type_attr: "T"
        }
        attr {
          name: "T"
          type: "type"
          allowed_values {
            list {
              type: DT_BFLOAT16
              type: DT_HALF
              type: DT_FLOAT
              type: DT_DOUBLE
              type: DT_INT32
              type: DT_INT64
              type: DT_COMPLEX64
              type: DT_COMPLEX128
            }
          }
        }
      }
      op {
        name: "SquaredDifference"
        input_arg {
          name: "x"
          type_attr: "T"
        }
        input_arg {
          name: "y"
          type_attr: "T"
        }
        output_arg {
          name: "z"
          type_attr: "T"
        }
        attr {
          name: "T"
          type: "type"
          allowed_values {
            list {
              type: DT_BFLOAT16
              type: DT_HALF
              type: DT_FLOAT
              type: DT_DOUBLE
              type: DT_INT32
              type: DT_INT64
              type: DT_COMPLEX64
              type: DT_COMPLEX128
            }
          }
        }
        is_commutative: true
      }
      op {
        name: "StridedSlice"
        input_arg {
          name: "input"
          type_attr: "T"
        }
        input_arg {
          name: "begin"
          type_attr: "Index"
        }
        input_arg {
          name: "end"
          type_attr: "Index"
        }
        input_arg {
          name: "strides"
          type_attr: "Index"
        }
        output_arg {
          name: "output"
          type_attr: "T"
        }
        attr {
          name: "T"
          type: "type"
        }
        attr {
          name: "Index"
          type: "type"
          allowed_values {
            list {
              type: DT_INT32
              type: DT_INT64
            }
          }
        }
        attr {
          name: "begin_mask"
          type: "int"
          default_value {
            i: 0
          }
        }
        attr {
          name: "end_mask"
          type: "int"
          default_value {
            i: 0
          }
        }
        attr {
          name: "ellipsis_mask"
          type: "int"
          default_value {
            i: 0
          }
        }
        attr {
          name: "new_axis_mask"
          type: "int"
          default_value {
            i: 0
          }
        }
        attr {
          name: "shrink_axis_mask"
          type: "int"
          default_value {
            i: 0
          }
        }
      }
      op {
        name: "StringJoin"
        input_arg {
          name: "inputs"
          type: DT_STRING
          number_attr: "N"
        }
        output_arg {
          name: "output"
          type: DT_STRING
        }
        attr {
          name: "N"
          type: "int"
          has_minimum: true
          minimum: 1
        }
        attr {
          name: "separator"
          type: "string"
          default_value {
            s: ""
          }
        }
      }
      op {
        name: "Sub"
        input_arg {
          name: "x"
          type_attr: "T"
        }
        input_arg {
          name: "y"
          type_attr: "T"
        }
        output_arg {
          name: "z"
          type_attr: "T"
        }
        attr {
          name: "T"
          type: "type"
          allowed_values {
            list {
              type: DT_BFLOAT16
              type: DT_HALF
              type: DT_FLOAT
              type: DT_DOUBLE
              type: DT_UINT8
              type: DT_INT8
              type: DT_UINT16
              type: DT_INT16
              type: DT_INT32
              type: DT_INT64
              type: DT_COMPLEX64
              type: DT_COMPLEX128
            }
          }
        }
      }
      op {
        name: "Sum"
        input_arg {
          name: "input"
          type_attr: "T"
        }
        input_arg {
          name: "reduction_indices"
          type_attr: "Tidx"
        }
        output_arg {
          name: "output"
          type_attr: "T"
        }
        attr {
          name: "keep_dims"
          type: "bool"
          default_value {
            b: false
          }
        }
        attr {
          name: "T"
          type: "type"
          allowed_values {
            list {
              type: DT_FLOAT
              type: DT_DOUBLE
              type: DT_INT32
              type: DT_UINT8
              type: DT_INT16
              type: DT_INT8
              type: DT_COMPLEX64
              type: DT_INT64
              type: DT_QINT8
              type: DT_QUINT8
              type: DT_QINT32
              type: DT_BFLOAT16
              type: DT_UINT16
              type: DT_COMPLEX128
              type: DT_HALF
              type: DT_UINT32
              type: DT_UINT64
            }
          }
        }
        attr {
          name: "Tidx"
          type: "type"
          default_value {
            type: DT_INT32
          }
          allowed_values {
            list {
              type: DT_INT32
              type: DT_INT64
            }
          }
        }
      }
      op {
        name: "Tile"
        input_arg {
          name: "input"
          type_attr: "T"
        }
        input_arg {
          name: "multiples"
          type_attr: "Tmultiples"
        }
        output_arg {
          name: "output"
          type_attr: "T"
        }
        attr {
          name: "T"
          type: "type"
        }
        attr {
          name: "Tmultiples"
          type: "type"
          default_value {
            type: DT_INT32
          }
          allowed_values {
            list {
              type: DT_INT32
              type: DT_INT64
            }
          }
        }
      }
      op {
        name: "Transpose"
        input_arg {
          name: "x"
          type_attr: "T"
        }
        input_arg {
          name: "perm"
          type_attr: "Tperm"
        }
        output_arg {
          name: "y"
          type_attr: "T"
        }
        attr {
          name: "T"
          type: "type"
        }
        attr {
          name: "Tperm"
          type: "type"
          default_value {
            type: DT_INT32
          }
          allowed_values {
            list {
              type: DT_INT32
              type: DT_INT64
            }
          }
        }
      }
      op {
        name: "TruncatedNormal"
        input_arg {
          name: "shape"
          type_attr: "T"
        }
        output_arg {
          name: "output"
          type_attr: "dtype"
        }
        attr {
          name: "seed"
          type: "int"
          default_value {
            i: 0
          }
        }
        attr {
          name: "seed2"
          type: "int"
          default_value {
            i: 0
          }
        }
        attr {
          name: "dtype"
          type: "type"
          allowed_values {
            list {
              type: DT_HALF
              type: DT_BFLOAT16
              type: DT_FLOAT
              type: DT_DOUBLE
            }
          }
        }
        attr {
          name: "T"
          type: "type"
          allowed_values {
            list {
              type: DT_INT32
              type: DT_INT64
            }
          }
        }
        is_stateful: true
      }
      op {
        name: "Unique"
        input_arg {
          name: "x"
          type_attr: "T"
        }
        output_arg {
          name: "y"
          type_attr: "T"
        }
        output_arg {
          name: "idx"
          type_attr: "out_idx"
        }
        attr {
          name: "T"
          type: "type"
        }
        attr {
          name: "out_idx"
          type: "type"
          default_value {
            type: DT_INT32
          }
          allowed_values {
            list {
              type: DT_INT32
              type: DT_INT64
            }
          }
        }
      }
      op {
        name: "VarHandleOp"
        output_arg {
          name: "resource"
          type: DT_RESOURCE
        }
        attr {
          name: "container"
          type: "string"
          default_value {
            s: ""
          }
        }
        attr {
          name: "shared_name"
          type: "string"
          default_value {
            s: ""
          }
        }
        attr {
          name: "dtype"
          type: "type"
        }
        attr {
          name: "shape"
          type: "shape"
        }
        is_stateful: true
      }
      op {
        name: "VarIsInitializedOp"
        input_arg {
          name: "resource"
          type: DT_RESOURCE
        }
        output_arg {
          name: "is_initialized"
          type: DT_BOOL
        }
        is_stateful: true
      }
      op {
        name: "VariableV2"
        output_arg {
          name: "ref"
          type_attr: "dtype"
          is_ref: true
        }
        attr {
          name: "shape"
          type: "shape"
        }
        attr {
          name: "dtype"
          type: "type"
        }
        attr {
          name: "container"
          type: "string"
          default_value {
            s: ""
          }
        }
        attr {
          name: "shared_name"
          type: "string"
          default_value {
            s: ""
          }
        }
        is_stateful: true
      }
      op {
        name: "Where"
        input_arg {
          name: "input"
          type_attr: "T"
        }
        output_arg {
          name: "index"
          type: DT_INT64
        }
        attr {
          name: "T"
          type: "type"
          default_value {
            type: DT_BOOL
          }
          allowed_values {
            list {
              type: DT_FLOAT
              type: DT_DOUBLE
              type: DT_INT32
              type: DT_UINT8
              type: DT_INT16
              type: DT_INT8
              type: DT_COMPLEX64
              type: DT_INT64
              type: DT_QINT8
              type: DT_QUINT8
              type: DT_QINT32
              type: DT_BFLOAT16
              type: DT_UINT16
              type: DT_COMPLEX128
              type: DT_HALF
              type: DT_UINT32
              type: DT_UINT64
              type: DT_BOOL
            }
          }
        }
      }
      op {
        name: "ZerosLike"
        input_arg {
          name: "x"
          type_attr: "T"
        }
        output_arg {
          name: "y"
          type_attr: "T"
        }
        attr {
          name: "T"
          type: "type"
        }
      }
    }
    tags: "serve"
    tensorflow_version: "1.12.0"
    tensorflow_git_version: "b\'v1.12.0-rc2-3-ga6d8ffae09\'"
    stripped_default_attrs: true
  }
  graph_def {
    node {
      name: "global_step/Initializer/zeros"
      op: "Const"
      attr {
        key: "_class"
        value {
          list {
            s: "loc:@global_step"
          }
        }
      }
      attr {
        key: "_output_shapes"
        value {
          list {
            shape {
            }
          }
        }
      }
      attr {
        key: "dtype"
        value {
          type: DT_INT64
        }
      }
      attr {
        key: "value"
        value {
          tensor {
            dtype: DT_INT64
            tensor_shape {
            }
            int64_val: 0
          }
        }
      }
    }
    node {
      name: "global_step"
      op: "VariableV2"
      attr {
        key: "_class"
        value {
          list {
            s: "loc:@global_step"
          }
        }
      }
      attr {
        key: "_output_shapes"
        value {
          list {
            shape {
            }
          }
        }
      }
      attr {
        key: "dtype"
        value {
          type: DT_INT64
        }
      }
      attr {
        key: "shape"
        value {
          shape {
          }
        }
      }
    }
    node {
      name: "global_step/Assign"
      op: "Assign"
      input: "global_step"
      input: "global_step/Initializer/zeros"
      attr {
        key: "T"
        value {
          type: DT_INT64
        }
      }
      attr {
        key: "_class"
        value {
          list {
            s: "loc:@global_step"
          }
        }
      }
      attr {
        key: "_output_shapes"
        value {
          list {
            shape {
            }
          }
        }
      }
    }
    node {
      name: "global_step/read"
      op: "Identity"
      input: "global_step"
      attr {
        key: "T"
        value {
          type: DT_INT64
        }
      }
      attr {
        key: "_class"
        value {
          list {
            s: "loc:@global_step"
          }
        }
      }
      attr {
        key: "_output_shapes"
        value {
          list {
            shape {
            }
          }
        }
      }
    }
    node {
      name: "csv_rows"
      op: "Placeholder"
      attr {
        key: "_output_shapes"
        value {
          list {
            shape {
              dim {
                size: -1
              }
            }
          }
        }
      }
      attr {
        key: "dtype"
        value {
          type: DT_STRING
        }
      }
      attr {
        key: "shape"
        value {
          shape {
            dim {
              size: -1
            }
          }
        }
      }
    }
    node {
      name: "ExpandDims/dim"
      op: "Const"
      attr {
        key: "_output_shapes"
        value {
          list {
            shape {
            }
          }
        }
      }
      attr {
        key: "dtype"
        value {
          type: DT_INT32
        }
      }
      attr {
        key: "value"
        value {
          tensor {
            dtype: DT_INT32
            tensor_shape {
            }
            int_val: -1
          }
        }
      }
    }
    node {
      name: "ExpandDims"
      op: "ExpandDims"
      input: "csv_rows"
      input: "ExpandDims/dim"
      attr {
        key: "T"
        value {
          type: DT_STRING
        }
      }
      attr {
        key: "_output_shapes"
        value {
          list {
            shape {
              dim {
                size: -1
              }
              dim {
                size: 1
              }
            }
          }
        }
      }
    }
    node {
      name: "DecodeCSV/record_defaults_0"
      op: "Const"
      attr {
        key: "_output_shapes"
        value {
          list {
            shape {
              dim {
                size: 1
              }
            }
          }
        }
      }
      attr {
        key: "dtype"
        value {
          type: DT_FLOAT
        }
      }
      attr {
        key: "value"
        value {
          tensor {
            dtype: DT_FLOAT
            tensor_shape {
              dim {
                size: 1
              }
            }
            float_val: 0.0
          }
        }
      }
    }
    node {
      name: "DecodeCSV/record_defaults_1"
      op: "Const"
      attr {
        key: "_output_shapes"
        value {
          list {
            shape {
              dim {
                size: 1
              }
            }
          }
        }
      }
      attr {
        key: "dtype"
        value {
          type: DT_FLOAT
        }
      }
      attr {
        key: "value"
        value {
          tensor {
            dtype: DT_FLOAT
            tensor_shape {
              dim {
                size: 1
              }
            }
            float_val: 0.0
          }
        }
      }
    }
    node {
      name: "DecodeCSV/record_defaults_2"
      op: "Const"
      attr {
        key: "_output_shapes"
        value {
          list {
            shape {
              dim {
                size: 1
              }
            }
          }
        }
      }
      attr {
        key: "dtype"
        value {
          type: DT_STRING
        }
      }
      attr {
        key: "value"
        value {
          tensor {
            dtype: DT_STRING
            tensor_shape {
              dim {
                size: 1
              }
            }
            string_val: "NA"
          }
        }
      }
    }
    node {
      name: "DecodeCSV/record_defaults_3"
      op: "Const"
      attr {
        key: "_output_shapes"
        value {
          list {
            shape {
              dim {
                size: 1
              }
            }
          }
        }
      }
      attr {
        key: "dtype"
        value {
          type: DT_STRING
        }
      }
      attr {
        key: "value"
        value {
          tensor {
            dtype: DT_STRING
            tensor_shape {
              dim {
                size: 1
              }
            }
            string_val: "NA"
          }
        }
      }
    }
    node {
      name: "DecodeCSV"
      op: "DecodeCSV"
      input: "ExpandDims"
      input: "DecodeCSV/record_defaults_0"
      input: "DecodeCSV/record_defaults_1"
      input: "DecodeCSV/record_defaults_2"
      input: "DecodeCSV/record_defaults_3"
      attr {
        key: "OUT_TYPE"
        value {
          list {
            type: DT_FLOAT
            type: DT_FLOAT
            type: DT_STRING
            type: DT_STRING
          }
        }
      }
      attr {
        key: "_output_shapes"
        value {
          list {
            shape {
              dim {
                size: -1
              }
              dim {
                size: 1
              }
            }
            shape {
              dim {
                size: -1
              }
              dim {
                size: 1
              }
            }
            shape {
              dim {
                size: -1
              }
              dim {
                size: 1
              }
            }
            shape {
              dim {
                size: -1
              }
              dim {
                size: 1
              }
            }
          }
        }
      }
    }
    node {
      name: "clip_by_value/Minimum/y"
      op: "Const"
      attr {
        key: "_output_shapes"
        value {
          list {
            shape {
            }
          }
        }
      }
      attr {
        key: "dtype"
        value {
          type: DT_FLOAT
        }
      }
      attr {
        key: "value"
        value {
          tensor {
            dtype: DT_FLOAT
            tensor_shape {
            }
            float_val: 3.0
          }
        }
      }
    }
    node {
      name: "clip_by_value/Minimum"
      op: "Minimum"
      input: "DecodeCSV"
      input: "clip_by_value/Minimum/y"
      attr {
        key: "T"
        value {
          type: DT_FLOAT
        }
      }
      attr {
        key: "_output_shapes"
        value {
          list {
            shape {
              dim {
                size: -1
              }
              dim {
                size: 1
              }
            }
          }
        }
      }
    }
    node {
      name: "clip_by_value/y"
      op: "Const"
      attr {
        key: "_output_shapes"
        value {
          list {
            shape {
            }
          }
        }
      }
      attr {
        key: "dtype"
        value {
          type: DT_FLOAT
        }
      }
      attr {
        key: "value"
        value {
          tensor {
            dtype: DT_FLOAT
            tensor_shape {
            }
            float_val: -3.0
          }
        }
      }
    }
    node {
      name: "clip_by_value"
      op: "Maximum"
      input: "clip_by_value/Minimum"
      input: "clip_by_value/y"
      attr {
        key: "T"
        value {
          type: DT_FLOAT
        }
      }
      attr {
        key: "_output_shapes"
        value {
          list {
            shape {
              dim {
                size: -1
              }
              dim {
                size: 1
              }
            }
          }
        }
      }
    }
    node {
      name: "clip_by_value_1/Minimum/y"
      op: "Const"
      attr {
        key: "_output_shapes"
        value {
          list {
            shape {
            }
          }
        }
      }
      attr {
        key: "dtype"
        value {
          type: DT_FLOAT
        }
      }
      attr {
        key: "value"
        value {
          tensor {
            dtype: DT_FLOAT
            tensor_shape {
            }
            float_val: 3.0
          }
        }
      }
    }
    node {
      name: "clip_by_value_1/Minimum"
      op: "Minimum"
      input: "DecodeCSV:1"
      input: "clip_by_value_1/Minimum/y"
      attr {
        key: "T"
        value {
          type: DT_FLOAT
        }
      }
      attr {
        key: "_output_shapes"
        value {
          list {
            shape {
              dim {
                size: -1
              }
              dim {
                size: 1
              }
            }
          }
        }
      }
    }
    node {
      name: "clip_by_value_1/y"
      op: "Const"
      attr {
        key: "_output_shapes"
        value {
          list {
            shape {
            }
          }
        }
      }
      attr {
        key: "dtype"
        value {
          type: DT_FLOAT
        }
      }
      attr {
        key: "value"
        value {
          tensor {
            dtype: DT_FLOAT
            tensor_shape {
            }
            float_val: -3.0
          }
        }
      }
    }
    node {
      name: "clip_by_value_1"
      op: "Maximum"
      input: "clip_by_value_1/Minimum"
      input: "clip_by_value_1/y"
      attr {
        key: "T"
        value {
          type: DT_FLOAT
        }
      }
      attr {
        key: "_output_shapes"
        value {
          list {
            shape {
              dim {
                size: -1
              }
              dim {
                size: 1
              }
            }
          }
        }
      }
    }
    node {
      name: "Square"
      op: "Square"
      input: "clip_by_value"
      attr {
        key: "T"
        value {
          type: DT_FLOAT
        }
      }
      attr {
        key: "_output_shapes"
        value {
          list {
            shape {
              dim {
                size: -1
              }
              dim {
                size: 1
              }
            }
          }
        }
      }
    }
    node {
      name: "Square_1"
      op: "Square"
      input: "clip_by_value_1"
      attr {
        key: "T"
        value {
          type: DT_FLOAT
        }
      }
      attr {
        key: "_output_shapes"
        value {
          list {
            shape {
              dim {
                size: -1
              }
              dim {
                size: 1
              }
            }
          }
        }
      }
    }
    node {
      name: "mul"
      op: "Mul"
      input: "clip_by_value"
      input: "clip_by_value_1"
      attr {
        key: "T"
        value {
          type: DT_FLOAT
        }
      }
      attr {
        key: "_output_shapes"
        value {
          list {
            shape {
              dim {
                size: -1
              }
              dim {
                size: 1
              }
            }
          }
        }
      }
    }
    node {
      name: "SquaredDifference"
      op: "SquaredDifference"
      input: "clip_by_value"
      input: "clip_by_value_1"
      attr {
        key: "T"
        value {
          type: DT_FLOAT
        }
      }
      attr {
        key: "_output_shapes"
        value {
          list {
            shape {
              dim {
                size: -1
              }
              dim {
                size: 1
              }
            }
          }
        }
      }
    }
    node {
      name: "Sqrt"
      op: "Sqrt"
      input: "SquaredDifference"
      attr {
        key: "T"
        value {
          type: DT_FLOAT
        }
      }
      attr {
        key: "_output_shapes"
        value {
          list {
            shape {
              dim {
                size: -1
              }
              dim {
                size: 1
              }
            }
          }
        }
      }
    }
    node {
      name: "Sin"
      op: "Sin"
      input: "clip_by_value"
      attr {
        key: "T"
        value {
          type: DT_FLOAT
        }
      }
      attr {
        key: "_output_shapes"
        value {
          list {
            shape {
              dim {
                size: -1
              }
              dim {
                size: 1
              }
            }
          }
        }
      }
    }
    node {
      name: "Sin_1"
      op: "Sin"
      input: "clip_by_value_1"
      attr {
        key: "T"
        value {
          type: DT_FLOAT
        }
      }
      attr {
        key: "_output_shapes"
        value {
          list {
            shape {
              dim {
                size: -1
              }
              dim {
                size: 1
              }
            }
          }
        }
      }
    }
    node {
      name: "dnn/input_from_feature_columns/input_layer/alpha_indicator/to_sparse_input/ignore_value/x"
      op: "Const"
      attr {
        key: "_output_shapes"
        value {
          list {
            shape {
            }
          }
        }
      }
      attr {
        key: "dtype"
        value {
          type: DT_STRING
        }
      }
      attr {
        key: "value"
        value {
          tensor {
            dtype: DT_STRING
            tensor_shape {
            }
            string_val: ""
          }
        }
      }
    }
    node {
      name: "dnn/input_from_feature_columns/input_layer/alpha_indicator/to_sparse_input/NotEqual"
      op: "NotEqual"
      input: "DecodeCSV:2"
      input: "dnn/input_from_feature_columns/input_layer/alpha_indicator/to_sparse_input/ignore_value/x"
      attr {
        key: "T"
        value {
          type: DT_STRING
        }
      }
      attr {
        key: "_output_shapes"
        value {
          list {
            shape {
              dim {
                size: -1
              }
              dim {
                size: 1
              }
            }
          }
        }
      }
    }
    node {
      name: "dnn/input_from_feature_columns/input_layer/alpha_indicator/to_sparse_input/indices"
      op: "Where"
      input: "dnn/input_from_feature_columns/input_layer/alpha_indicator/to_sparse_input/NotEqual"
      attr {
        key: "_output_shapes"
        value {
          list {
            shape {
              dim {
                size: -1
              }
              dim {
                size: 2
              }
            }
          }
        }
      }
    }
    node {
      name: "dnn/input_from_feature_columns/input_layer/alpha_indicator/to_sparse_input/values"
      op: "GatherNd"
      input: "DecodeCSV:2"
      input: "dnn/input_from_feature_columns/input_layer/alpha_indicator/to_sparse_input/indices"
      attr {
        key: "Tindices"
        value {
          type: DT_INT64
        }
      }
      attr {
        key: "Tparams"
        value {
          type: DT_STRING
        }
      }
      attr {
        key: "_output_shapes"
        value {
          list {
            shape {
              dim {
                size: -1
              }
            }
          }
        }
      }
    }
    node {
      name: "dnn/input_from_feature_columns/input_layer/alpha_indicator/to_sparse_input/dense_shape"
      op: "Shape"
      input: "DecodeCSV:2"
      attr {
        key: "T"
        value {
          type: DT_STRING
        }
      }
      attr {
        key: "_output_shapes"
        value {
          list {
            shape {
              dim {
                size: 2
              }
            }
          }
        }
      }
      attr {
        key: "out_type"
        value {
          type: DT_INT64
        }
      }
    }
    node {
      name: "dnn/input_from_feature_columns/input_layer/alpha_indicator/alpha_lookup/Const"
      op: "Const"
      attr {
        key: "_output_shapes"
        value {
          list {
            shape {
              dim {
                size: 2
              }
            }
          }
        }
      }
      attr {
        key: "dtype"
        value {
          type: DT_STRING
        }
      }
      attr {
        key: "value"
        value {
          tensor {
            dtype: DT_STRING
            tensor_shape {
              dim {
                size: 2
              }
            }
            string_val: "ax01"
            string_val: "ax02"
          }
        }
      }
    }
    node {
      name: "dnn/input_from_feature_columns/input_layer/alpha_indicator/alpha_lookup/Size"
      op: "Const"
      attr {
        key: "_output_shapes"
        value {
          list {
            shape {
            }
          }
        }
      }
      attr {
        key: "dtype"
        value {
          type: DT_INT32
        }
      }
      attr {
        key: "value"
        value {
          tensor {
            dtype: DT_INT32
            tensor_shape {
            }
            int_val: 2
          }
        }
      }
    }
    node {
      name: "dnn/input_from_feature_columns/input_layer/alpha_indicator/alpha_lookup/range/start"
      op: "Const"
      attr {
        key: "_output_shapes"
        value {
          list {
            shape {
            }
          }
        }
      }
      attr {
        key: "dtype"
        value {
          type: DT_INT32
        }
      }
      attr {
        key: "value"
        value {
          tensor {
            dtype: DT_INT32
            tensor_shape {
            }
            int_val: 0
          }
        }
      }
    }
    node {
      name: "dnn/input_from_feature_columns/input_layer/alpha_indicator/alpha_lookup/range/delta"
      op: "Const"
      attr {
        key: "_output_shapes"
        value {
          list {
            shape {
            }
          }
        }
      }
      attr {
        key: "dtype"
        value {
          type: DT_INT32
        }
      }
      attr {
        key: "value"
        value {
          tensor {
            dtype: DT_INT32
            tensor_shape {
            }
            int_val: 1
          }
        }
      }
    }
    node {
      name: "dnn/input_from_feature_columns/input_layer/alpha_indicator/alpha_lookup/range"
      op: "Range"
      input: "dnn/input_from_feature_columns/input_layer/alpha_indicator/alpha_lookup/range/start"
      input: "dnn/input_from_feature_columns/input_layer/alpha_indicator/alpha_lookup/Size"
      input: "dnn/input_from_feature_columns/input_layer/alpha_indicator/alpha_lookup/range/delta"
      attr {
        key: "_output_shapes"
        value {
          list {
            shape {
              dim {
                size: 2
              }
            }
          }
        }
      }
    }
    node {
      name: "dnn/input_from_feature_columns/input_layer/alpha_indicator/alpha_lookup/ToInt64"
      op: "Cast"
      input: "dnn/input_from_feature_columns/input_layer/alpha_indicator/alpha_lookup/range"
      attr {
        key: "DstT"
        value {
          type: DT_INT64
        }
      }
      attr {
        key: "SrcT"
        value {
          type: DT_INT32
        }
      }
      attr {
        key: "_output_shapes"
        value {
          list {
            shape {
              dim {
                size: 2
              }
            }
          }
        }
      }
    }
    node {
      name: "dnn/input_from_feature_columns/input_layer/alpha_indicator/alpha_lookup/hash_table"
      op: "HashTableV2"
      attr {
        key: "_output_shapes"
        value {
          list {
            shape {
            }
          }
        }
      }
      attr {
        key: "key_dtype"
        value {
          type: DT_STRING
        }
      }
      attr {
        key: "value_dtype"
        value {
          type: DT_INT64
        }
      }
    }
    node {
      name: "dnn/input_from_feature_columns/input_layer/alpha_indicator/alpha_lookup/hash_table/Const"
      op: "Const"
      attr {
        key: "_output_shapes"
        value {
          list {
            shape {
            }
          }
        }
      }
      attr {
        key: "dtype"
        value {
          type: DT_INT64
        }
      }
      attr {
        key: "value"
        value {
          tensor {
            dtype: DT_INT64
            tensor_shape {
            }
            int64_val: -1
          }
        }
      }
    }
    node {
      name: "dnn/input_from_feature_columns/input_layer/alpha_indicator/alpha_lookup/hash_table/table_init"
      op: "LookupTableImportV2"
      input: "dnn/input_from_feature_columns/input_layer/alpha_indicator/alpha_lookup/hash_table"
      input: "dnn/input_from_feature_columns/input_layer/alpha_indicator/alpha_lookup/Const"
      input: "dnn/input_from_feature_columns/input_layer/alpha_indicator/alpha_lookup/ToInt64"
      attr {
        key: "Tin"
        value {
          type: DT_STRING
        }
      }
      attr {
        key: "Tout"
        value {
          type: DT_INT64
        }
      }
    }
    node {
      name: "dnn/input_from_feature_columns/input_layer/alpha_indicator/hash_table_Lookup"
      op: "LookupTableFindV2"
      input: "dnn/input_from_feature_columns/input_layer/alpha_indicator/alpha_lookup/hash_table"
      input: "dnn/input_from_feature_columns/input_layer/alpha_indicator/to_sparse_input/values"
      input: "dnn/input_from_feature_columns/input_layer/alpha_indicator/alpha_lookup/hash_table/Const"
      attr {
        key: "Tin"
        value {
          type: DT_STRING
        }
      }
      attr {
        key: "Tout"
        value {
          type: DT_INT64
        }
      }
      attr {
        key: "_output_shapes"
        value {
          list {
            shape {
              dim {
                size: -1
              }
            }
          }
        }
      }
    }
    node {
      name: "dnn/input_from_feature_columns/input_layer/alpha_indicator/SparseToDense/default_value"
      op: "Const"
      attr {
        key: "_output_shapes"
        value {
          list {
            shape {
            }
          }
        }
      }
      attr {
        key: "dtype"
        value {
          type: DT_INT64
        }
      }
      attr {
        key: "value"
        value {
          tensor {
            dtype: DT_INT64
            tensor_shape {
            }
            int64_val: -1
          }
        }
      }
    }
    node {
      name: "dnn/input_from_feature_columns/input_layer/alpha_indicator/SparseToDense"
      op: "SparseToDense"
      input: "dnn/input_from_feature_columns/input_layer/alpha_indicator/to_sparse_input/indices"
      input: "dnn/input_from_feature_columns/input_layer/alpha_indicator/to_sparse_input/dense_shape"
      input: "dnn/input_from_feature_columns/input_layer/alpha_indicator/hash_table_Lookup"
      input: "dnn/input_from_feature_columns/input_layer/alpha_indicator/SparseToDense/default_value"
      attr {
        key: "T"
        value {
          type: DT_INT64
        }
      }
      attr {
        key: "Tindices"
        value {
          type: DT_INT64
        }
      }
      attr {
        key: "_output_shapes"
        value {
          list {
            shape {
              dim {
                size: -1
              }
              dim {
                size: 1
              }
            }
          }
        }
      }
    }
    node {
      name: "dnn/input_from_feature_columns/input_layer/alpha_indicator/one_hot/Const"
      op: "Const"
      attr {
        key: "_output_shapes"
        value {
          list {
            shape {
            }
          }
        }
      }
      attr {
        key: "dtype"
        value {
          type: DT_FLOAT
        }
      }
      attr {
        key: "value"
        value {
          tensor {
            dtype: DT_FLOAT
            tensor_shape {
            }
            float_val: 1.0
          }
        }
      }
    }
    node {
      name: "dnn/input_from_feature_columns/input_layer/alpha_indicator/one_hot/Const_1"
      op: "Const"
      attr {
        key: "_output_shapes"
        value {
          list {
            shape {
            }
          }
        }
      }
      attr {
        key: "dtype"
        value {
          type: DT_FLOAT
        }
      }
      attr {
        key: "value"
        value {
          tensor {
            dtype: DT_FLOAT
            tensor_shape {
            }
            float_val: 0.0
          }
        }
      }
    }
    node {
      name: "dnn/input_from_feature_columns/input_layer/alpha_indicator/one_hot/depth"
      op: "Const"
      attr {
        key: "_output_shapes"
        value {
          list {
            shape {
            }
          }
        }
      }
      attr {
        key: "dtype"
        value {
          type: DT_INT32
        }
      }
      attr {
        key: "value"
        value {
          tensor {
            dtype: DT_INT32
            tensor_shape {
            }
            int_val: 2
          }
        }
      }
    }
    node {
      name: "dnn/input_from_feature_columns/input_layer/alpha_indicator/one_hot/on_value"
      op: "Const"
      attr {
        key: "_output_shapes"
        value {
          list {
            shape {
            }
          }
        }
      }
      attr {
        key: "dtype"
        value {
          type: DT_FLOAT
        }
      }
      attr {
        key: "value"
        value {
          tensor {
            dtype: DT_FLOAT
            tensor_shape {
            }
            float_val: 1.0
          }
        }
      }
    }
    node {
      name: "dnn/input_from_feature_columns/input_layer/alpha_indicator/one_hot/off_value"
      op: "Const"
      attr {
        key: "_output_shapes"
        value {
          list {
            shape {
            }
          }
        }
      }
      attr {
        key: "dtype"
        value {
          type: DT_FLOAT
        }
      }
      attr {
        key: "value"
        value {
          tensor {
            dtype: DT_FLOAT
            tensor_shape {
            }
            float_val: 0.0
          }
        }
      }
    }
    node {
      name: "dnn/input_from_feature_columns/input_layer/alpha_indicator/one_hot"
      op: "OneHot"
      input: "dnn/input_from_feature_columns/input_layer/alpha_indicator/SparseToDense"
      input: "dnn/input_from_feature_columns/input_layer/alpha_indicator/one_hot/depth"
      input: "dnn/input_from_feature_columns/input_layer/alpha_indicator/one_hot/on_value"
      input: "dnn/input_from_feature_columns/input_layer/alpha_indicator/one_hot/off_value"
      attr {
        key: "T"
        value {
          type: DT_FLOAT
        }
      }
      attr {
        key: "_output_shapes"
        value {
          list {
            shape {
              dim {
                size: -1
              }
              dim {
                size: 1
              }
              dim {
                size: 2
              }
            }
          }
        }
      }
    }
    node {
      name: "dnn/input_from_feature_columns/input_layer/alpha_indicator/Sum/reduction_indices"
      op: "Const"
      attr {
        key: "_output_shapes"
        value {
          list {
            shape {
              dim {
                size: 1
              }
            }
          }
        }
      }
      attr {
        key: "dtype"
        value {
          type: DT_INT32
        }
      }
      attr {
        key: "value"
        value {
          tensor {
            dtype: DT_INT32
            tensor_shape {
              dim {
                size: 1
              }
            }
            int_val: -2
          }
        }
      }
    }
    node {
      name: "dnn/input_from_feature_columns/input_layer/alpha_indicator/Sum"
      op: "Sum"
      input: "dnn/input_from_feature_columns/input_layer/alpha_indicator/one_hot"
      input: "dnn/input_from_feature_columns/input_layer/alpha_indicator/Sum/reduction_indices"
      attr {
        key: "T"
        value {
          type: DT_FLOAT
        }
      }
      attr {
        key: "_output_shapes"
        value {
          list {
            shape {
              dim {
                size: -1
              }
              dim {
                size: 2
              }
            }
          }
        }
      }
    }
    node {
      name: "dnn/input_from_feature_columns/input_layer/alpha_indicator/Shape"
      op: "Shape"
      input: "dnn/input_from_feature_columns/input_layer/alpha_indicator/Sum"
      attr {
        key: "T"
        value {
          type: DT_FLOAT
        }
      }
      attr {
        key: "_output_shapes"
        value {
          list {
            shape {
              dim {
                size: 2
              }
            }
          }
        }
      }
    }
    node {
      name: "dnn/input_from_feature_columns/input_layer/alpha_indicator/strided_slice/stack"
      op: "Const"
      attr {
        key: "_output_shapes"
        value {
          list {
            shape {
              dim {
                size: 1
              }
            }
          }
        }
      }
      attr {
        key: "dtype"
        value {
          type: DT_INT32
        }
      }
      attr {
        key: "value"
        value {
          tensor {
            dtype: DT_INT32
            tensor_shape {
              dim {
                size: 1
              }
            }
            int_val: 0
          }
        }
      }
    }
    node {
      name: "dnn/input_from_feature_columns/input_layer/alpha_indicator/strided_slice/stack_1"
      op: "Const"
      attr {
        key: "_output_shapes"
        value {
          list {
            shape {
              dim {
                size: 1
              }
            }
          }
        }
      }
      attr {
        key: "dtype"
        value {
          type: DT_INT32
        }
      }
      attr {
        key: "value"
        value {
          tensor {
            dtype: DT_INT32
            tensor_shape {
              dim {
                size: 1
              }
            }
            int_val: 1
          }
        }
      }
    }
    node {
      name: "dnn/input_from_feature_columns/input_layer/alpha_indicator/strided_slice/stack_2"
      op: "Const"
      attr {
        key: "_output_shapes"
        value {
          list {
            shape {
              dim {
                size: 1
              }
            }
          }
        }
      }
      attr {
        key: "dtype"
        value {
          type: DT_INT32
        }
      }
      attr {
        key: "value"
        value {
          tensor {
            dtype: DT_INT32
            tensor_shape {
              dim {
                size: 1
              }
            }
            int_val: 1
          }
        }
      }
    }
    node {
      name: "dnn/input_from_feature_columns/input_layer/alpha_indicator/strided_slice"
      op: "StridedSlice"
      input: "dnn/input_from_feature_columns/input_layer/alpha_indicator/Shape"
      input: "dnn/input_from_feature_columns/input_layer/alpha_indicator/strided_slice/stack"
      input: "dnn/input_from_feature_columns/input_layer/alpha_indicator/strided_slice/stack_1"
      input: "dnn/input_from_feature_columns/input_layer/alpha_indicator/strided_slice/stack_2"
      attr {
        key: "Index"
        value {
          type: DT_INT32
        }
      }
      attr {
        key: "T"
        value {
          type: DT_INT32
        }
      }
      attr {
        key: "_output_shapes"
        value {
          list {
            shape {
            }
          }
        }
      }
      attr {
        key: "shrink_axis_mask"
        value {
          i: 1
        }
      }
    }
    node {
      name: "dnn/input_from_feature_columns/input_layer/alpha_indicator/Reshape/shape/1"
      op: "Const"
      attr {
        key: "_output_shapes"
        value {
          list {
            shape {
            }
          }
        }
      }
      attr {
        key: "dtype"
        value {
          type: DT_INT32
        }
      }
      attr {
        key: "value"
        value {
          tensor {
            dtype: DT_INT32
            tensor_shape {
            }
            int_val: 2
          }
        }
      }
    }
    node {
      name: "dnn/input_from_feature_columns/input_layer/alpha_indicator/Reshape/shape"
      op: "Pack"
      input: "dnn/input_from_feature_columns/input_layer/alpha_indicator/strided_slice"
      input: "dnn/input_from_feature_columns/input_layer/alpha_indicator/Reshape/shape/1"
      attr {
        key: "N"
        value {
          i: 2
        }
      }
      attr {
        key: "T"
        value {
          type: DT_INT32
        }
      }
      attr {
        key: "_output_shapes"
        value {
          list {
            shape {
              dim {
                size: 2
              }
            }
          }
        }
      }
    }
    node {
      name: "dnn/input_from_feature_columns/input_layer/alpha_indicator/Reshape"
      op: "Reshape"
      input: "dnn/input_from_feature_columns/input_layer/alpha_indicator/Sum"
      input: "dnn/input_from_feature_columns/input_layer/alpha_indicator/Reshape/shape"
      attr {
        key: "T"
        value {
          type: DT_FLOAT
        }
      }
      attr {
        key: "_output_shapes"
        value {
          list {
            shape {
              dim {
                size: -1
              }
              dim {
                size: 2
              }
            }
          }
        }
      }
    }
    node {
      name: "dnn/input_from_feature_columns/input_layer/beta_indicator/to_sparse_input/ignore_value/x"
      op: "Const"
      attr {
        key: "_output_shapes"
        value {
          list {
            shape {
            }
          }
        }
      }
      attr {
        key: "dtype"
        value {
          type: DT_STRING
        }
      }
      attr {
        key: "value"
        value {
          tensor {
            dtype: DT_STRING
            tensor_shape {
            }
            string_val: ""
          }
        }
      }
    }
    node {
      name: "dnn/input_from_feature_columns/input_layer/beta_indicator/to_sparse_input/NotEqual"
      op: "NotEqual"
      input: "DecodeCSV:3"
      input: "dnn/input_from_feature_columns/input_layer/beta_indicator/to_sparse_input/ignore_value/x"
      attr {
        key: "T"
        value {
          type: DT_STRING
        }
      }
      attr {
        key: "_output_shapes"
        value {
          list {
            shape {
              dim {
                size: -1
              }
              dim {
                size: 1
              }
            }
          }
        }
      }
    }
    node {
      name: "dnn/input_from_feature_columns/input_layer/beta_indicator/to_sparse_input/indices"
      op: "Where"
      input: "dnn/input_from_feature_columns/input_layer/beta_indicator/to_sparse_input/NotEqual"
      attr {
        key: "_output_shapes"
        value {
          list {
            shape {
              dim {
                size: -1
              }
              dim {
                size: 2
              }
            }
          }
        }
      }
    }
    node {
      name: "dnn/input_from_feature_columns/input_layer/beta_indicator/to_sparse_input/values"
      op: "GatherNd"
      input: "DecodeCSV:3"
      input: "dnn/input_from_feature_columns/input_layer/beta_indicator/to_sparse_input/indices"
      attr {
        key: "Tindices"
        value {
          type: DT_INT64
        }
      }
      attr {
        key: "Tparams"
        value {
          type: DT_STRING
        }
      }
      attr {
        key: "_output_shapes"
        value {
          list {
            shape {
              dim {
                size: -1
              }
            }
          }
        }
      }
    }
    node {
      name: "dnn/input_from_feature_columns/input_layer/beta_indicator/to_sparse_input/dense_shape"
      op: "Shape"
      input: "DecodeCSV:3"
      attr {
        key: "T"
        value {
          type: DT_STRING
        }
      }
      attr {
        key: "_output_shapes"
        value {
          list {
            shape {
              dim {
                size: 2
              }
            }
          }
        }
      }
      attr {
        key: "out_type"
        value {
          type: DT_INT64
        }
      }
    }
    node {
      name: "dnn/input_from_feature_columns/input_layer/beta_indicator/beta_lookup/Const"
      op: "Const"
      attr {
        key: "_output_shapes"
        value {
          list {
            shape {
              dim {
                size: 2
              }
            }
          }
        }
      }
      attr {
        key: "dtype"
        value {
          type: DT_STRING
        }
      }
      attr {
        key: "value"
        value {
          tensor {
            dtype: DT_STRING
            tensor_shape {
              dim {
                size: 2
              }
            }
            string_val: "bx01"
            string_val: "bx02"
          }
        }
      }
    }
    node {
      name: "dnn/input_from_feature_columns/input_layer/beta_indicator/beta_lookup/Size"
      op: "Const"
      attr {
        key: "_output_shapes"
        value {
          list {
            shape {
            }
          }
        }
      }
      attr {
        key: "dtype"
        value {
          type: DT_INT32
        }
      }
      attr {
        key: "value"
        value {
          tensor {
            dtype: DT_INT32
            tensor_shape {
            }
            int_val: 2
          }
        }
      }
    }
    node {
      name: "dnn/input_from_feature_columns/input_layer/beta_indicator/beta_lookup/range/start"
      op: "Const"
      attr {
        key: "_output_shapes"
        value {
          list {
            shape {
            }
          }
        }
      }
      attr {
        key: "dtype"
        value {
          type: DT_INT32
        }
      }
      attr {
        key: "value"
        value {
          tensor {
            dtype: DT_INT32
            tensor_shape {
            }
            int_val: 0
          }
        }
      }
    }
    node {
      name: "dnn/input_from_feature_columns/input_layer/beta_indicator/beta_lookup/range/delta"
      op: "Const"
      attr {
        key: "_output_shapes"
        value {
          list {
            shape {
            }
          }
        }
      }
      attr {
        key: "dtype"
        value {
          type: DT_INT32
        }
      }
      attr {
        key: "value"
        value {
          tensor {
            dtype: DT_INT32
            tensor_shape {
            }
            int_val: 1
          }
        }
      }
    }
    node {
      name: "dnn/input_from_feature_columns/input_layer/beta_indicator/beta_lookup/range"
      op: "Range"
      input: "dnn/input_from_feature_columns/input_layer/beta_indicator/beta_lookup/range/start"
      input: "dnn/input_from_feature_columns/input_layer/beta_indicator/beta_lookup/Size"
      input: "dnn/input_from_feature_columns/input_layer/beta_indicator/beta_lookup/range/delta"
      attr {
        key: "_output_shapes"
        value {
          list {
            shape {
              dim {
                size: 2
              }
            }
          }
        }
      }
    }
    node {
      name: "dnn/input_from_feature_columns/input_layer/beta_indicator/beta_lookup/ToInt64"
      op: "Cast"
      input: "dnn/input_from_feature_columns/input_layer/beta_indicator/beta_lookup/range"
      attr {
        key: "DstT"
        value {
          type: DT_INT64
        }
      }
      attr {
        key: "SrcT"
        value {
          type: DT_INT32
        }
      }
      attr {
        key: "_output_shapes"
        value {
          list {
            shape {
              dim {
                size: 2
              }
            }
          }
        }
      }
    }
    node {
      name: "dnn/input_from_feature_columns/input_layer/beta_indicator/beta_lookup/hash_table"
      op: "HashTableV2"
      attr {
        key: "_output_shapes"
        value {
          list {
            shape {
            }
          }
        }
      }
      attr {
        key: "key_dtype"
        value {
          type: DT_STRING
        }
      }
      attr {
        key: "value_dtype"
        value {
          type: DT_INT64
        }
      }
    }
    node {
      name: "dnn/input_from_feature_columns/input_layer/beta_indicator/beta_lookup/hash_table/Const"
      op: "Const"
      attr {
        key: "_output_shapes"
        value {
          list {
            shape {
            }
          }
        }
      }
      attr {
        key: "dtype"
        value {
          type: DT_INT64
        }
      }
      attr {
        key: "value"
        value {
          tensor {
            dtype: DT_INT64
            tensor_shape {
            }
            int64_val: -1
          }
        }
      }
    }
    node {
      name: "dnn/input_from_feature_columns/input_layer/beta_indicator/beta_lookup/hash_table/table_init"
      op: "LookupTableImportV2"
      input: "dnn/input_from_feature_columns/input_layer/beta_indicator/beta_lookup/hash_table"
      input: "dnn/input_from_feature_columns/input_layer/beta_indicator/beta_lookup/Const"
      input: "dnn/input_from_feature_columns/input_layer/beta_indicator/beta_lookup/ToInt64"
      attr {
        key: "Tin"
        value {
          type: DT_STRING
        }
      }
      attr {
        key: "Tout"
        value {
          type: DT_INT64
        }
      }
    }
    node {
      name: "dnn/input_from_feature_columns/input_layer/beta_indicator/hash_table_Lookup"
      op: "LookupTableFindV2"
      input: "dnn/input_from_feature_columns/input_layer/beta_indicator/beta_lookup/hash_table"
      input: "dnn/input_from_feature_columns/input_layer/beta_indicator/to_sparse_input/values"
      input: "dnn/input_from_feature_columns/input_layer/beta_indicator/beta_lookup/hash_table/Const"
      attr {
        key: "Tin"
        value {
          type: DT_STRING
        }
      }
      attr {
        key: "Tout"
        value {
          type: DT_INT64
        }
      }
      attr {
        key: "_output_shapes"
        value {
          list {
            shape {
              dim {
                size: -1
              }
            }
          }
        }
      }
    }
    node {
      name: "dnn/input_from_feature_columns/input_layer/beta_indicator/SparseToDense/default_value"
      op: "Const"
      attr {
        key: "_output_shapes"
        value {
          list {
            shape {
            }
          }
        }
      }
      attr {
        key: "dtype"
        value {
          type: DT_INT64
        }
      }
      attr {
        key: "value"
        value {
          tensor {
            dtype: DT_INT64
            tensor_shape {
            }
            int64_val: -1
          }
        }
      }
    }
    node {
      name: "dnn/input_from_feature_columns/input_layer/beta_indicator/SparseToDense"
      op: "SparseToDense"
      input: "dnn/input_from_feature_columns/input_layer/beta_indicator/to_sparse_input/indices"
      input: "dnn/input_from_feature_columns/input_layer/beta_indicator/to_sparse_input/dense_shape"
      input: "dnn/input_from_feature_columns/input_layer/beta_indicator/hash_table_Lookup"
      input: "dnn/input_from_feature_columns/input_layer/beta_indicator/SparseToDense/default_value"
      attr {
        key: "T"
        value {
          type: DT_INT64
        }
      }
      attr {
        key: "Tindices"
        value {
          type: DT_INT64
        }
      }
      attr {
        key: "_output_shapes"
        value {
          list {
            shape {
              dim {
                size: -1
              }
              dim {
                size: 1
              }
            }
          }
        }
      }
    }
    node {
      name: "dnn/input_from_feature_columns/input_layer/beta_indicator/one_hot/Const"
      op: "Const"
      attr {
        key: "_output_shapes"
        value {
          list {
            shape {
            }
          }
        }
      }
      attr {
        key: "dtype"
        value {
          type: DT_FLOAT
        }
      }
      attr {
        key: "value"
        value {
          tensor {
            dtype: DT_FLOAT
            tensor_shape {
            }
            float_val: 1.0
          }
        }
      }
    }
    node {
      name: "dnn/input_from_feature_columns/input_layer/beta_indicator/one_hot/Const_1"
      op: "Const"
      attr {
        key: "_output_shapes"
        value {
          list {
            shape {
            }
          }
        }
      }
      attr {
        key: "dtype"
        value {
          type: DT_FLOAT
        }
      }
      attr {
        key: "value"
        value {
          tensor {
            dtype: DT_FLOAT
            tensor_shape {
            }
            float_val: 0.0
          }
        }
      }
    }
    node {
      name: "dnn/input_from_feature_columns/input_layer/beta_indicator/one_hot/depth"
      op: "Const"
      attr {
        key: "_output_shapes"
        value {
          list {
            shape {
            }
          }
        }
      }
      attr {
        key: "dtype"
        value {
          type: DT_INT32
        }
      }
      attr {
        key: "value"
        value {
          tensor {
            dtype: DT_INT32
            tensor_shape {
            }
            int_val: 2
          }
        }
      }
    }
    node {
      name: "dnn/input_from_feature_columns/input_layer/beta_indicator/one_hot/on_value"
      op: "Const"
      attr {
        key: "_output_shapes"
        value {
          list {
            shape {
            }
          }
        }
      }
      attr {
        key: "dtype"
        value {
          type: DT_FLOAT
        }
      }
      attr {
        key: "value"
        value {
          tensor {
            dtype: DT_FLOAT
            tensor_shape {
            }
            float_val: 1.0
          }
        }
      }
    }
    node {
      name: "dnn/input_from_feature_columns/input_layer/beta_indicator/one_hot/off_value"
      op: "Const"
      attr {
        key: "_output_shapes"
        value {
          list {
            shape {
            }
          }
        }
      }
      attr {
        key: "dtype"
        value {
          type: DT_FLOAT
        }
      }
      attr {
        key: "value"
        value {
          tensor {
            dtype: DT_FLOAT
            tensor_shape {
            }
            float_val: 0.0
          }
        }
      }
    }
    node {
      name: "dnn/input_from_feature_columns/input_layer/beta_indicator/one_hot"
      op: "OneHot"
      input: "dnn/input_from_feature_columns/input_layer/beta_indicator/SparseToDense"
      input: "dnn/input_from_feature_columns/input_layer/beta_indicator/one_hot/depth"
      input: "dnn/input_from_feature_columns/input_layer/beta_indicator/one_hot/on_value"
      input: "dnn/input_from_feature_columns/input_layer/beta_indicator/one_hot/off_value"
      attr {
        key: "T"
        value {
          type: DT_FLOAT
        }
      }
      attr {
        key: "_output_shapes"
        value {
          list {
            shape {
              dim {
                size: -1
              }
              dim {
                size: 1
              }
              dim {
                size: 2
              }
            }
          }
        }
      }
    }
    node {
      name: "dnn/input_from_feature_columns/input_layer/beta_indicator/Sum/reduction_indices"
      op: "Const"
      attr {
        key: "_output_shapes"
        value {
          list {
            shape {
              dim {
                size: 1
              }
            }
          }
        }
      }
      attr {
        key: "dtype"
        value {
          type: DT_INT32
        }
      }
      attr {
        key: "value"
        value {
          tensor {
            dtype: DT_INT32
            tensor_shape {
              dim {
                size: 1
              }
            }
            int_val: -2
          }
        }
      }
    }
    node {
      name: "dnn/input_from_feature_columns/input_layer/beta_indicator/Sum"
      op: "Sum"
      input: "dnn/input_from_feature_columns/input_layer/beta_indicator/one_hot"
      input: "dnn/input_from_feature_columns/input_layer/beta_indicator/Sum/reduction_indices"
      attr {
        key: "T"
        value {
          type: DT_FLOAT
        }
      }
      attr {
        key: "_output_shapes"
        value {
          list {
            shape {
              dim {
                size: -1
              }
              dim {
                size: 2
              }
            }
          }
        }
      }
    }
    node {
      name: "dnn/input_from_feature_columns/input_layer/beta_indicator/Shape"
      op: "Shape"
      input: "dnn/input_from_feature_columns/input_layer/beta_indicator/Sum"
      attr {
        key: "T"
        value {
          type: DT_FLOAT
        }
      }
      attr {
        key: "_output_shapes"
        value {
          list {
            shape {
              dim {
                size: 2
              }
            }
          }
        }
      }
    }
    node {
      name: "dnn/input_from_feature_columns/input_layer/beta_indicator/strided_slice/stack"
      op: "Const"
      attr {
        key: "_output_shapes"
        value {
          list {
            shape {
              dim {
                size: 1
              }
            }
          }
        }
      }
      attr {
        key: "dtype"
        value {
          type: DT_INT32
        }
      }
      attr {
        key: "value"
        value {
          tensor {
            dtype: DT_INT32
            tensor_shape {
              dim {
                size: 1
              }
            }
            int_val: 0
          }
        }
      }
    }
    node {
      name: "dnn/input_from_feature_columns/input_layer/beta_indicator/strided_slice/stack_1"
      op: "Const"
      attr {
        key: "_output_shapes"
        value {
          list {
            shape {
              dim {
                size: 1
              }
            }
          }
        }
      }
      attr {
        key: "dtype"
        value {
          type: DT_INT32
        }
      }
      attr {
        key: "value"
        value {
          tensor {
            dtype: DT_INT32
            tensor_shape {
              dim {
                size: 1
              }
            }
            int_val: 1
          }
        }
      }
    }
    node {
      name: "dnn/input_from_feature_columns/input_layer/beta_indicator/strided_slice/stack_2"
      op: "Const"
      attr {
        key: "_output_shapes"
        value {
          list {
            shape {
              dim {
                size: 1
              }
            }
          }
        }
      }
      attr {
        key: "dtype"
        value {
          type: DT_INT32
        }
      }
      attr {
        key: "value"
        value {
          tensor {
            dtype: DT_INT32
            tensor_shape {
              dim {
                size: 1
              }
            }
            int_val: 1
          }
        }
      }
    }
    node {
      name: "dnn/input_from_feature_columns/input_layer/beta_indicator/strided_slice"
      op: "StridedSlice"
      input: "dnn/input_from_feature_columns/input_layer/beta_indicator/Shape"
      input: "dnn/input_from_feature_columns/input_layer/beta_indicator/strided_slice/stack"
      input: "dnn/input_from_feature_columns/input_layer/beta_indicator/strided_slice/stack_1"
      input: "dnn/input_from_feature_columns/input_layer/beta_indicator/strided_slice/stack_2"
      attr {
        key: "Index"
        value {
          type: DT_INT32
        }
      }
      attr {
        key: "T"
        value {
          type: DT_INT32
        }
      }
      attr {
        key: "_output_shapes"
        value {
          list {
            shape {
            }
          }
        }
      }
      attr {
        key: "shrink_axis_mask"
        value {
          i: 1
        }
      }
    }
    node {
      name: "dnn/input_from_feature_columns/input_layer/beta_indicator/Reshape/shape/1"
      op: "Const"
      attr {
        key: "_output_shapes"
        value {
          list {
            shape {
            }
          }
        }
      }
      attr {
        key: "dtype"
        value {
          type: DT_INT32
        }
      }
      attr {
        key: "value"
        value {
          tensor {
            dtype: DT_INT32
            tensor_shape {
            }
            int_val: 2
          }
        }
      }
    }
    node {
      name: "dnn/input_from_feature_columns/input_layer/beta_indicator/Reshape/shape"
      op: "Pack"
      input: "dnn/input_from_feature_columns/input_layer/beta_indicator/strided_slice"
      input: "dnn/input_from_feature_columns/input_layer/beta_indicator/Reshape/shape/1"
      attr {
        key: "N"
        value {
          i: 2
        }
      }
      attr {
        key: "T"
        value {
          type: DT_INT32
        }
      }
      attr {
        key: "_output_shapes"
        value {
          list {
            shape {
              dim {
                size: 2
              }
            }
          }
        }
      }
    }
    node {
      name: "dnn/input_from_feature_columns/input_layer/beta_indicator/Reshape"
      op: "Reshape"
      input: "dnn/input_from_feature_columns/input_layer/beta_indicator/Sum"
      input: "dnn/input_from_feature_columns/input_layer/beta_indicator/Reshape/shape"
      attr {
        key: "T"
        value {
          type: DT_FLOAT
        }
      }
      attr {
        key: "_output_shapes"
        value {
          list {
            shape {
              dim {
                size: -1
              }
              dim {
                size: 2
              }
            }
          }
        }
      }
    }
    node {
      name: "dnn/input_from_feature_columns/input_layer/cos_y/Shape"
      op: "Shape"
      input: "Sin_1"
      attr {
        key: "T"
        value {
          type: DT_FLOAT
        }
      }
      attr {
        key: "_output_shapes"
        value {
          list {
            shape {
              dim {
                size: 2
              }
            }
          }
        }
      }
    }
    node {
      name: "dnn/input_from_feature_columns/input_layer/cos_y/strided_slice/stack"
      op: "Const"
      attr {
        key: "_output_shapes"
        value {
          list {
            shape {
              dim {
                size: 1
              }
            }
          }
        }
      }
      attr {
        key: "dtype"
        value {
          type: DT_INT32
        }
      }
      attr {
        key: "value"
        value {
          tensor {
            dtype: DT_INT32
            tensor_shape {
              dim {
                size: 1
              }
            }
            int_val: 0
          }
        }
      }
    }
    node {
      name: "dnn/input_from_feature_columns/input_layer/cos_y/strided_slice/stack_1"
      op: "Const"
      attr {
        key: "_output_shapes"
        value {
          list {
            shape {
              dim {
                size: 1
              }
            }
          }
        }
      }
      attr {
        key: "dtype"
        value {
          type: DT_INT32
        }
      }
      attr {
        key: "value"
        value {
          tensor {
            dtype: DT_INT32
            tensor_shape {
              dim {
                size: 1
              }
            }
            int_val: 1
          }
        }
      }
    }
    node {
      name: "dnn/input_from_feature_columns/input_layer/cos_y/strided_slice/stack_2"
      op: "Const"
      attr {
        key: "_output_shapes"
        value {
          list {
            shape {
              dim {
                size: 1
              }
            }
          }
        }
      }
      attr {
        key: "dtype"
        value {
          type: DT_INT32
        }
      }
      attr {
        key: "value"
        value {
          tensor {
            dtype: DT_INT32
            tensor_shape {
              dim {
                size: 1
              }
            }
            int_val: 1
          }
        }
      }
    }
    node {
      name: "dnn/input_from_feature_columns/input_layer/cos_y/strided_slice"
      op: "StridedSlice"
      input: "dnn/input_from_feature_columns/input_layer/cos_y/Shape"
      input: "dnn/input_from_feature_columns/input_layer/cos_y/strided_slice/stack"
      input: "dnn/input_from_feature_columns/input_layer/cos_y/strided_slice/stack_1"
      input: "dnn/input_from_feature_columns/input_layer/cos_y/strided_slice/stack_2"
      attr {
        key: "Index"
        value {
          type: DT_INT32
        }
      }
      attr {
        key: "T"
        value {
          type: DT_INT32
        }
      }
      attr {
        key: "_output_shapes"
        value {
          list {
            shape {
            }
          }
        }
      }
      attr {
        key: "shrink_axis_mask"
        value {
          i: 1
        }
      }
    }
    node {
      name: "dnn/input_from_feature_columns/input_layer/cos_y/Reshape/shape/1"
      op: "Const"
      attr {
        key: "_output_shapes"
        value {
          list {
            shape {
            }
          }
        }
      }
      attr {
        key: "dtype"
        value {
          type: DT_INT32
        }
      }
      attr {
        key: "value"
        value {
          tensor {
            dtype: DT_INT32
            tensor_shape {
            }
            int_val: 1
          }
        }
      }
    }
    node {
      name: "dnn/input_from_feature_columns/input_layer/cos_y/Reshape/shape"
      op: "Pack"
      input: "dnn/input_from_feature_columns/input_layer/cos_y/strided_slice"
      input: "dnn/input_from_feature_columns/input_layer/cos_y/Reshape/shape/1"
      attr {
        key: "N"
        value {
          i: 2
        }
      }
      attr {
        key: "T"
        value {
          type: DT_INT32
        }
      }
      attr {
        key: "_output_shapes"
        value {
          list {
            shape {
              dim {
                size: 2
              }
            }
          }
        }
      }
    }
    node {
      name: "dnn/input_from_feature_columns/input_layer/cos_y/Reshape"
      op: "Reshape"
      input: "Sin_1"
      input: "dnn/input_from_feature_columns/input_layer/cos_y/Reshape/shape"
      attr {
        key: "T"
        value {
          type: DT_FLOAT
        }
      }
      attr {
        key: "_output_shapes"
        value {
          list {
            shape {
              dim {
                size: -1
              }
              dim {
                size: 1
              }
            }
          }
        }
      }
    }
    node {
      name: "dnn/input_from_feature_columns/input_layer/dist_xy/Shape"
      op: "Shape"
      input: "Sqrt"
      attr {
        key: "T"
        value {
          type: DT_FLOAT
        }
      }
      attr {
        key: "_output_shapes"
        value {
          list {
            shape {
              dim {
                size: 2
              }
            }
          }
        }
      }
    }
    node {
      name: "dnn/input_from_feature_columns/input_layer/dist_xy/strided_slice/stack"
      op: "Const"
      attr {
        key: "_output_shapes"
        value {
          list {
            shape {
              dim {
                size: 1
              }
            }
          }
        }
      }
      attr {
        key: "dtype"
        value {
          type: DT_INT32
        }
      }
      attr {
        key: "value"
        value {
          tensor {
            dtype: DT_INT32
            tensor_shape {
              dim {
                size: 1
              }
            }
            int_val: 0
          }
        }
      }
    }
    node {
      name: "dnn/input_from_feature_columns/input_layer/dist_xy/strided_slice/stack_1"
      op: "Const"
      attr {
        key: "_output_shapes"
        value {
          list {
            shape {
              dim {
                size: 1
              }
            }
          }
        }
      }
      attr {
        key: "dtype"
        value {
          type: DT_INT32
        }
      }
      attr {
        key: "value"
        value {
          tensor {
            dtype: DT_INT32
            tensor_shape {
              dim {
                size: 1
              }
            }
            int_val: 1
          }
        }
      }
    }
    node {
      name: "dnn/input_from_feature_columns/input_layer/dist_xy/strided_slice/stack_2"
      op: "Const"
      attr {
        key: "_output_shapes"
        value {
          list {
            shape {
              dim {
                size: 1
              }
            }
          }
        }
      }
      attr {
        key: "dtype"
        value {
          type: DT_INT32
        }
      }
      attr {
        key: "value"
        value {
          tensor {
            dtype: DT_INT32
            tensor_shape {
              dim {
                size: 1
              }
            }
            int_val: 1
          }
        }
      }
    }
    node {
      name: "dnn/input_from_feature_columns/input_layer/dist_xy/strided_slice"
      op: "StridedSlice"
      input: "dnn/input_from_feature_columns/input_layer/dist_xy/Shape"
      input: "dnn/input_from_feature_columns/input_layer/dist_xy/strided_slice/stack"
      input: "dnn/input_from_feature_columns/input_layer/dist_xy/strided_slice/stack_1"
      input: "dnn/input_from_feature_columns/input_layer/dist_xy/strided_slice/stack_2"
      attr {
        key: "Index"
        value {
          type: DT_INT32
        }
      }
      attr {
        key: "T"
        value {
          type: DT_INT32
        }
      }
      attr {
        key: "_output_shapes"
        value {
          list {
            shape {
            }
          }
        }
      }
      attr {
        key: "shrink_axis_mask"
        value {
          i: 1
        }
      }
    }
    node {
      name: "dnn/input_from_feature_columns/input_layer/dist_xy/Reshape/shape/1"
      op: "Const"
      attr {
        key: "_output_shapes"
        value {
          list {
            shape {
            }
          }
        }
      }
      attr {
        key: "dtype"
        value {
          type: DT_INT32
        }
      }
      attr {
        key: "value"
        value {
          tensor {
            dtype: DT_INT32
            tensor_shape {
            }
            int_val: 1
          }
        }
      }
    }
    node {
      name: "dnn/input_from_feature_columns/input_layer/dist_xy/Reshape/shape"
      op: "Pack"
      input: "dnn/input_from_feature_columns/input_layer/dist_xy/strided_slice"
      input: "dnn/input_from_feature_columns/input_layer/dist_xy/Reshape/shape/1"
      attr {
        key: "N"
        value {
          i: 2
        }
      }
      attr {
        key: "T"
        value {
          type: DT_INT32
        }
      }
      attr {
        key: "_output_shapes"
        value {
          list {
            shape {
              dim {
                size: 2
              }
            }
          }
        }
      }
    }
    node {
      name: "dnn/input_from_feature_columns/input_layer/dist_xy/Reshape"
      op: "Reshape"
      input: "Sqrt"
      input: "dnn/input_from_feature_columns/input_layer/dist_xy/Reshape/shape"
      attr {
        key: "T"
        value {
          type: DT_FLOAT
        }
      }
      attr {
        key: "_output_shapes"
        value {
          list {
            shape {
              dim {
                size: -1
              }
              dim {
                size: 1
              }
            }
          }
        }
      }
    }
    node {
      name: "dnn/input_from_feature_columns/input_layer/sin_x/Shape"
      op: "Shape"
      input: "Sin"
      attr {
        key: "T"
        value {
          type: DT_FLOAT
        }
      }
      attr {
        key: "_output_shapes"
        value {
          list {
            shape {
              dim {
                size: 2
              }
            }
          }
        }
      }
    }
    node {
      name: "dnn/input_from_feature_columns/input_layer/sin_x/strided_slice/stack"
      op: "Const"
      attr {
        key: "_output_shapes"
        value {
          list {
            shape {
              dim {
                size: 1
              }
            }
          }
        }
      }
      attr {
        key: "dtype"
        value {
          type: DT_INT32
        }
      }
      attr {
        key: "value"
        value {
          tensor {
            dtype: DT_INT32
            tensor_shape {
              dim {
                size: 1
              }
            }
            int_val: 0
          }
        }
      }
    }
    node {
      name: "dnn/input_from_feature_columns/input_layer/sin_x/strided_slice/stack_1"
      op: "Const"
      attr {
        key: "_output_shapes"
        value {
          list {
            shape {
              dim {
                size: 1
              }
            }
          }
        }
      }
      attr {
        key: "dtype"
        value {
          type: DT_INT32
        }
      }
      attr {
        key: "value"
        value {
          tensor {
            dtype: DT_INT32
            tensor_shape {
              dim {
                size: 1
              }
            }
            int_val: 1
          }
        }
      }
    }
    node {
      name: "dnn/input_from_feature_columns/input_layer/sin_x/strided_slice/stack_2"
      op: "Const"
      attr {
        key: "_output_shapes"
        value {
          list {
            shape {
              dim {
                size: 1
              }
            }
          }
        }
      }
      attr {
        key: "dtype"
        value {
          type: DT_INT32
        }
      }
      attr {
        key: "value"
        value {
          tensor {
            dtype: DT_INT32
            tensor_shape {
              dim {
                size: 1
              }
            }
            int_val: 1
          }
        }
      }
    }
    node {
      name: "dnn/input_from_feature_columns/input_layer/sin_x/strided_slice"
      op: "StridedSlice"
      input: "dnn/input_from_feature_columns/input_layer/sin_x/Shape"
      input: "dnn/input_from_feature_columns/input_layer/sin_x/strided_slice/stack"
      input: "dnn/input_from_feature_columns/input_layer/sin_x/strided_slice/stack_1"
      input: "dnn/input_from_feature_columns/input_layer/sin_x/strided_slice/stack_2"
      attr {
        key: "Index"
        value {
          type: DT_INT32
        }
      }
      attr {
        key: "T"
        value {
          type: DT_INT32
        }
      }
      attr {
        key: "_output_shapes"
        value {
          list {
            shape {
            }
          }
        }
      }
      attr {
        key: "shrink_axis_mask"
        value {
          i: 1
        }
      }
    }
    node {
      name: "dnn/input_from_feature_columns/input_layer/sin_x/Reshape/shape/1"
      op: "Const"
      attr {
        key: "_output_shapes"
        value {
          list {
            shape {
            }
          }
        }
      }
      attr {
        key: "dtype"
        value {
          type: DT_INT32
        }
      }
      attr {
        key: "value"
        value {
          tensor {
            dtype: DT_INT32
            tensor_shape {
            }
            int_val: 1
          }
        }
      }
    }
    node {
      name: "dnn/input_from_feature_columns/input_layer/sin_x/Reshape/shape"
      op: "Pack"
      input: "dnn/input_from_feature_columns/input_layer/sin_x/strided_slice"
      input: "dnn/input_from_feature_columns/input_layer/sin_x/Reshape/shape/1"
      attr {
        key: "N"
        value {
          i: 2
        }
      }
      attr {
        key: "T"
        value {
          type: DT_INT32
        }
      }
      attr {
        key: "_output_shapes"
        value {
          list {
            shape {
              dim {
                size: 2
              }
            }
          }
        }
      }
    }
    node {
      name: "dnn/input_from_feature_columns/input_layer/sin_x/Reshape"
      op: "Reshape"
      input: "Sin"
      input: "dnn/input_from_feature_columns/input_layer/sin_x/Reshape/shape"
      attr {
        key: "T"
        value {
          type: DT_FLOAT
        }
      }
      attr {
        key: "_output_shapes"
        value {
          list {
            shape {
              dim {
                size: -1
              }
              dim {
                size: 1
              }
            }
          }
        }
      }
    }
    node {
      name: "dnn/input_from_feature_columns/input_layer/x/Shape"
      op: "Shape"
      input: "clip_by_value"
      attr {
        key: "T"
        value {
          type: DT_FLOAT
        }
      }
      attr {
        key: "_output_shapes"
        value {
          list {
            shape {
              dim {
                size: 2
              }
            }
          }
        }
      }
    }
    node {
      name: "dnn/input_from_feature_columns/input_layer/x/strided_slice/stack"
      op: "Const"
      attr {
        key: "_output_shapes"
        value {
          list {
            shape {
              dim {
                size: 1
              }
            }
          }
        }
      }
      attr {
        key: "dtype"
        value {
          type: DT_INT32
        }
      }
      attr {
        key: "value"
        value {
          tensor {
            dtype: DT_INT32
            tensor_shape {
              dim {
                size: 1
              }
            }
            int_val: 0
          }
        }
      }
    }
    node {
      name: "dnn/input_from_feature_columns/input_layer/x/strided_slice/stack_1"
      op: "Const"
      attr {
        key: "_output_shapes"
        value {
          list {
            shape {
              dim {
                size: 1
              }
            }
          }
        }
      }
      attr {
        key: "dtype"
        value {
          type: DT_INT32
        }
      }
      attr {
        key: "value"
        value {
          tensor {
            dtype: DT_INT32
            tensor_shape {
              dim {
                size: 1
              }
            }
            int_val: 1
          }
        }
      }
    }
    node {
      name: "dnn/input_from_feature_columns/input_layer/x/strided_slice/stack_2"
      op: "Const"
      attr {
        key: "_output_shapes"
        value {
          list {
            shape {
              dim {
                size: 1
              }
            }
          }
        }
      }
      attr {
        key: "dtype"
        value {
          type: DT_INT32
        }
      }
      attr {
        key: "value"
        value {
          tensor {
            dtype: DT_INT32
            tensor_shape {
              dim {
                size: 1
              }
            }
            int_val: 1
          }
        }
      }
    }
    node {
      name: "dnn/input_from_feature_columns/input_layer/x/strided_slice"
      op: "StridedSlice"
      input: "dnn/input_from_feature_columns/input_layer/x/Shape"
      input: "dnn/input_from_feature_columns/input_layer/x/strided_slice/stack"
      input: "dnn/input_from_feature_columns/input_layer/x/strided_slice/stack_1"
      input: "dnn/input_from_feature_columns/input_layer/x/strided_slice/stack_2"
      attr {
        key: "Index"
        value {
          type: DT_INT32
        }
      }
      attr {
        key: "T"
        value {
          type: DT_INT32
        }
      }
      attr {
        key: "_output_shapes"
        value {
          list {
            shape {
            }
          }
        }
      }
      attr {
        key: "shrink_axis_mask"
        value {
          i: 1
        }
      }
    }
    node {
      name: "dnn/input_from_feature_columns/input_layer/x/Reshape/shape/1"
      op: "Const"
      attr {
        key: "_output_shapes"
        value {
          list {
            shape {
            }
          }
        }
      }
      attr {
        key: "dtype"
        value {
          type: DT_INT32
        }
      }
      attr {
        key: "value"
        value {
          tensor {
            dtype: DT_INT32
            tensor_shape {
            }
            int_val: 1
          }
        }
      }
    }
    node {
      name: "dnn/input_from_feature_columns/input_layer/x/Reshape/shape"
      op: "Pack"
      input: "dnn/input_from_feature_columns/input_layer/x/strided_slice"
      input: "dnn/input_from_feature_columns/input_layer/x/Reshape/shape/1"
      attr {
        key: "N"
        value {
          i: 2
        }
      }
      attr {
        key: "T"
        value {
          type: DT_INT32
        }
      }
      attr {
        key: "_output_shapes"
        value {
          list {
            shape {
              dim {
                size: 2
              }
            }
          }
        }
      }
    }
    node {
      name: "dnn/input_from_feature_columns/input_layer/x/Reshape"
      op: "Reshape"
      input: "clip_by_value"
      input: "dnn/input_from_feature_columns/input_layer/x/Reshape/shape"
      attr {
        key: "T"
        value {
          type: DT_FLOAT
        }
      }
      attr {
        key: "_output_shapes"
        value {
          list {
            shape {
              dim {
                size: -1
              }
              dim {
                size: 1
              }
            }
          }
        }
      }
    }
    node {
      name: "dnn/input_from_feature_columns/input_layer/x_2/Shape"
      op: "Shape"
      input: "Square"
      attr {
        key: "T"
        value {
          type: DT_FLOAT
        }
      }
      attr {
        key: "_output_shapes"
        value {
          list {
            shape {
              dim {
                size: 2
              }
            }
          }
        }
      }
    }
    node {
      name: "dnn/input_from_feature_columns/input_layer/x_2/strided_slice/stack"
      op: "Const"
      attr {
        key: "_output_shapes"
        value {
          list {
            shape {
              dim {
                size: 1
              }
            }
          }
        }
      }
      attr {
        key: "dtype"
        value {
          type: DT_INT32
        }
      }
      attr {
        key: "value"
        value {
          tensor {
            dtype: DT_INT32
            tensor_shape {
              dim {
                size: 1
              }
            }
            int_val: 0
          }
        }
      }
    }
    node {
      name: "dnn/input_from_feature_columns/input_layer/x_2/strided_slice/stack_1"
      op: "Const"
      attr {
        key: "_output_shapes"
        value {
          list {
            shape {
              dim {
                size: 1
              }
            }
          }
        }
      }
      attr {
        key: "dtype"
        value {
          type: DT_INT32
        }
      }
      attr {
        key: "value"
        value {
          tensor {
            dtype: DT_INT32
            tensor_shape {
              dim {
                size: 1
              }
            }
            int_val: 1
          }
        }
      }
    }
    node {
      name: "dnn/input_from_feature_columns/input_layer/x_2/strided_slice/stack_2"
      op: "Const"
      attr {
        key: "_output_shapes"
        value {
          list {
            shape {
              dim {
                size: 1
              }
            }
          }
        }
      }
      attr {
        key: "dtype"
        value {
          type: DT_INT32
        }
      }
      attr {
        key: "value"
        value {
          tensor {
            dtype: DT_INT32
            tensor_shape {
              dim {
                size: 1
              }
            }
            int_val: 1
          }
        }
      }
    }
    node {
      name: "dnn/input_from_feature_columns/input_layer/x_2/strided_slice"
      op: "StridedSlice"
      input: "dnn/input_from_feature_columns/input_layer/x_2/Shape"
      input: "dnn/input_from_feature_columns/input_layer/x_2/strided_slice/stack"
      input: "dnn/input_from_feature_columns/input_layer/x_2/strided_slice/stack_1"
      input: "dnn/input_from_feature_columns/input_layer/x_2/strided_slice/stack_2"
      attr {
        key: "Index"
        value {
          type: DT_INT32
        }
      }
      attr {
        key: "T"
        value {
          type: DT_INT32
        }
      }
      attr {
        key: "_output_shapes"
        value {
          list {
            shape {
            }
          }
        }
      }
      attr {
        key: "shrink_axis_mask"
        value {
          i: 1
        }
      }
    }
    node {
      name: "dnn/input_from_feature_columns/input_layer/x_2/Reshape/shape/1"
      op: "Const"
      attr {
        key: "_output_shapes"
        value {
          list {
            shape {
            }
          }
        }
      }
      attr {
        key: "dtype"
        value {
          type: DT_INT32
        }
      }
      attr {
        key: "value"
        value {
          tensor {
            dtype: DT_INT32
            tensor_shape {
            }
            int_val: 1
          }
        }
      }
    }
    node {
      name: "dnn/input_from_feature_columns/input_layer/x_2/Reshape/shape"
      op: "Pack"
      input: "dnn/input_from_feature_columns/input_layer/x_2/strided_slice"
      input: "dnn/input_from_feature_columns/input_layer/x_2/Reshape/shape/1"
      attr {
        key: "N"
        value {
          i: 2
        }
      }
      attr {
        key: "T"
        value {
          type: DT_INT32
        }
      }
      attr {
        key: "_output_shapes"
        value {
          list {
            shape {
              dim {
                size: 2
              }
            }
          }
        }
      }
    }
    node {
      name: "dnn/input_from_feature_columns/input_layer/x_2/Reshape"
      op: "Reshape"
      input: "Square"
      input: "dnn/input_from_feature_columns/input_layer/x_2/Reshape/shape"
      attr {
        key: "T"
        value {
          type: DT_FLOAT
        }
      }
      attr {
        key: "_output_shapes"
        value {
          list {
            shape {
              dim {
                size: -1
              }
              dim {
                size: 1
              }
            }
          }
        }
      }
    }
    node {
      name: "dnn/input_from_feature_columns/input_layer/x_bucketized_X_y_bucketized_embedding/Bucketize"
      op: "Bucketize"
      input: "clip_by_value"
      attr {
        key: "T"
        value {
          type: DT_FLOAT
        }
      }
      attr {
        key: "_output_shapes"
        value {
          list {
            shape {
              dim {
                size: -1
              }
              dim {
                size: 1
              }
            }
          }
        }
      }
      attr {
        key: "boundaries"
        value {
          list {
            f: -3.0
            f: -1.7999999523162842
            f: -0.6000000238418579
            f: 0.6000000238418579
            f: 1.7999999523162842
            f: 3.0
          }
        }
      }
    }
    node {
      name: "dnn/input_from_feature_columns/input_layer/x_bucketized_X_y_bucketized_embedding/Shape"
      op: "Shape"
      input: "dnn/input_from_feature_columns/input_layer/x_bucketized_X_y_bucketized_embedding/Bucketize"
      attr {
        key: "T"
        value {
          type: DT_INT32
        }
      }
      attr {
        key: "_output_shapes"
        value {
          list {
            shape {
              dim {
                size: 2
              }
            }
          }
        }
      }
    }
    node {
      name: "dnn/input_from_feature_columns/input_layer/x_bucketized_X_y_bucketized_embedding/strided_slice/stack"
      op: "Const"
      attr {
        key: "_output_shapes"
        value {
          list {
            shape {
              dim {
                size: 1
              }
            }
          }
        }
      }
      attr {
        key: "dtype"
        value {
          type: DT_INT32
        }
      }
      attr {
        key: "value"
        value {
          tensor {
            dtype: DT_INT32
            tensor_shape {
              dim {
                size: 1
              }
            }
            int_val: 0
          }
        }
      }
    }
    node {
      name: "dnn/input_from_feature_columns/input_layer/x_bucketized_X_y_bucketized_embedding/strided_slice/stack_1"
      op: "Const"
      attr {
        key: "_output_shapes"
        value {
          list {
            shape {
              dim {
                size: 1
              }
            }
          }
        }
      }
      attr {
        key: "dtype"
        value {
          type: DT_INT32
        }
      }
      attr {
        key: "value"
        value {
          tensor {
            dtype: DT_INT32
            tensor_shape {
              dim {
                size: 1
              }
            }
            int_val: 1
          }
        }
      }
    }
    node {
      name: "dnn/input_from_feature_columns/input_layer/x_bucketized_X_y_bucketized_embedding/strided_slice/stack_2"
      op: "Const"
      attr {
        key: "_output_shapes"
        value {
          list {
            shape {
              dim {
                size: 1
              }
            }
          }
        }
      }
      attr {
        key: "dtype"
        value {
          type: DT_INT32
        }
      }
      attr {
        key: "value"
        value {
          tensor {
            dtype: DT_INT32
            tensor_shape {
              dim {
                size: 1
              }
            }
            int_val: 1
          }
        }
      }
    }
    node {
      name: "dnn/input_from_feature_columns/input_layer/x_bucketized_X_y_bucketized_embedding/strided_slice"
      op: "StridedSlice"
      input: "dnn/input_from_feature_columns/input_layer/x_bucketized_X_y_bucketized_embedding/Shape"
      input: "dnn/input_from_feature_columns/input_layer/x_bucketized_X_y_bucketized_embedding/strided_slice/stack"
      input: "dnn/input_from_feature_columns/input_layer/x_bucketized_X_y_bucketized_embedding/strided_slice/stack_1"
      input: "dnn/input_from_feature_columns/input_layer/x_bucketized_X_y_bucketized_embedding/strided_slice/stack_2"
      attr {
        key: "Index"
        value {
          type: DT_INT32
        }
      }
      attr {
        key: "T"
        value {
          type: DT_INT32
        }
      }
      attr {
        key: "_output_shapes"
        value {
          list {
            shape {
            }
          }
        }
      }
      attr {
        key: "shrink_axis_mask"
        value {
          i: 1
        }
      }
    }
    node {
      name: "dnn/input_from_feature_columns/input_layer/x_bucketized_X_y_bucketized_embedding/range/start"
      op: "Const"
      attr {
        key: "_output_shapes"
        value {
          list {
            shape {
            }
          }
        }
      }
      attr {
        key: "dtype"
        value {
          type: DT_INT32
        }
      }
      attr {
        key: "value"
        value {
          tensor {
            dtype: DT_INT32
            tensor_shape {
            }
            int_val: 0
          }
        }
      }
    }
    node {
      name: "dnn/input_from_feature_columns/input_layer/x_bucketized_X_y_bucketized_embedding/range/delta"
      op: "Const"
      attr {
        key: "_output_shapes"
        value {
          list {
            shape {
            }
          }
        }
      }
      attr {
        key: "dtype"
        value {
          type: DT_INT32
        }
      }
      attr {
        key: "value"
        value {
          tensor {
            dtype: DT_INT32
            tensor_shape {
            }
            int_val: 1
          }
        }
      }
    }
    node {
      name: "dnn/input_from_feature_columns/input_layer/x_bucketized_X_y_bucketized_embedding/range"
      op: "Range"
      input: "dnn/input_from_feature_columns/input_layer/x_bucketized_X_y_bucketized_embedding/range/start"
      input: "dnn/input_from_feature_columns/input_layer/x_bucketized_X_y_bucketized_embedding/strided_slice"
      input: "dnn/input_from_feature_columns/input_layer/x_bucketized_X_y_bucketized_embedding/range/delta"
      attr {
        key: "_output_shapes"
        value {
          list {
            shape {
              dim {
                size: -1
              }
            }
          }
        }
      }
    }
    node {
      name: "dnn/input_from_feature_columns/input_layer/x_bucketized_X_y_bucketized_embedding/ExpandDims/dim"
      op: "Const"
      attr {
        key: "_output_shapes"
        value {
          list {
            shape {
            }
          }
        }
      }
      attr {
        key: "dtype"
        value {
          type: DT_INT32
        }
      }
      attr {
        key: "value"
        value {
          tensor {
            dtype: DT_INT32
            tensor_shape {
            }
            int_val: 1
          }
        }
      }
    }
    node {
      name: "dnn/input_from_feature_columns/input_layer/x_bucketized_X_y_bucketized_embedding/ExpandDims"
      op: "ExpandDims"
      input: "dnn/input_from_feature_columns/input_layer/x_bucketized_X_y_bucketized_embedding/range"
      input: "dnn/input_from_feature_columns/input_layer/x_bucketized_X_y_bucketized_embedding/ExpandDims/dim"
      attr {
        key: "T"
        value {
          type: DT_INT32
        }
      }
      attr {
        key: "_output_shapes"
        value {
          list {
            shape {
              dim {
                size: -1
              }
              dim {
                size: 1
              }
            }
          }
        }
      }
    }
    node {
      name: "dnn/input_from_feature_columns/input_layer/x_bucketized_X_y_bucketized_embedding/Tile/multiples"
      op: "Const"
      attr {
        key: "_output_shapes"
        value {
          list {
            shape {
              dim {
                size: 2
              }
            }
          }
        }
      }
      attr {
        key: "dtype"
        value {
          type: DT_INT32
        }
      }
      attr {
        key: "value"
        value {
          tensor {
            dtype: DT_INT32
            tensor_shape {
              dim {
                size: 2
              }
            }
            tensor_content: "\001\000\000\000\001\000\000\000"
          }
        }
      }
    }
    node {
      name: "dnn/input_from_feature_columns/input_layer/x_bucketized_X_y_bucketized_embedding/Tile"
      op: "Tile"
      input: "dnn/input_from_feature_columns/input_layer/x_bucketized_X_y_bucketized_embedding/ExpandDims"
      input: "dnn/input_from_feature_columns/input_layer/x_bucketized_X_y_bucketized_embedding/Tile/multiples"
      attr {
        key: "T"
        value {
          type: DT_INT32
        }
      }
      attr {
        key: "_output_shapes"
        value {
          list {
            shape {
              dim {
                size: -1
              }
              dim {
                size: 1
              }
            }
          }
        }
      }
    }
    node {
      name: "dnn/input_from_feature_columns/input_layer/x_bucketized_X_y_bucketized_embedding/Reshape/shape"
      op: "Const"
      attr {
        key: "_output_shapes"
        value {
          list {
            shape {
              dim {
                size: 1
              }
            }
          }
        }
      }
      attr {
        key: "dtype"
        value {
          type: DT_INT32
        }
      }
      attr {
        key: "value"
        value {
          tensor {
            dtype: DT_INT32
            tensor_shape {
              dim {
                size: 1
              }
            }
            int_val: -1
          }
        }
      }
    }
    node {
      name: "dnn/input_from_feature_columns/input_layer/x_bucketized_X_y_bucketized_embedding/Reshape"
      op: "Reshape"
      input: "dnn/input_from_feature_columns/input_layer/x_bucketized_X_y_bucketized_embedding/Tile"
      input: "dnn/input_from_feature_columns/input_layer/x_bucketized_X_y_bucketized_embedding/Reshape/shape"
      attr {
        key: "T"
        value {
          type: DT_INT32
        }
      }
      attr {
        key: "_output_shapes"
        value {
          list {
            shape {
              dim {
                size: -1
              }
            }
          }
        }
      }
    }
    node {
      name: "dnn/input_from_feature_columns/input_layer/x_bucketized_X_y_bucketized_embedding/range_1/start"
      op: "Const"
      attr {
        key: "_output_shapes"
        value {
          list {
            shape {
            }
          }
        }
      }
      attr {
        key: "dtype"
        value {
          type: DT_INT32
        }
      }
      attr {
        key: "value"
        value {
          tensor {
            dtype: DT_INT32
            tensor_shape {
            }
            int_val: 0
          }
        }
      }
    }
    node {
      name: "dnn/input_from_feature_columns/input_layer/x_bucketized_X_y_bucketized_embedding/range_1/limit"
      op: "Const"
      attr {
        key: "_output_shapes"
        value {
          list {
            shape {
            }
          }
        }
      }
      attr {
        key: "dtype"
        value {
          type: DT_INT32
        }
      }
      attr {
        key: "value"
        value {
          tensor {
            dtype: DT_INT32
            tensor_shape {
            }
            int_val: 1
          }
        }
      }
    }
    node {
      name: "dnn/input_from_feature_columns/input_layer/x_bucketized_X_y_bucketized_embedding/range_1/delta"
      op: "Const"
      attr {
        key: "_output_shapes"
        value {
          list {
            shape {
            }
          }
        }
      }
      attr {
        key: "dtype"
        value {
          type: DT_INT32
        }
      }
      attr {
        key: "value"
        value {
          tensor {
            dtype: DT_INT32
            tensor_shape {
            }
            int_val: 1
          }
        }
      }
    }
    node {
      name: "dnn/input_from_feature_columns/input_layer/x_bucketized_X_y_bucketized_embedding/range_1"
      op: "Range"
      input: "dnn/input_from_feature_columns/input_layer/x_bucketized_X_y_bucketized_embedding/range_1/start"
      input: "dnn/input_from_feature_columns/input_layer/x_bucketized_X_y_bucketized_embedding/range_1/limit"
      input: "dnn/input_from_feature_columns/input_layer/x_bucketized_X_y_bucketized_embedding/range_1/delta"
      attr {
        key: "_output_shapes"
        value {
          list {
            shape {
              dim {
                size: 1
              }
            }
          }
        }
      }
    }
    node {
      name: "dnn/input_from_feature_columns/input_layer/x_bucketized_X_y_bucketized_embedding/Tile_1/multiples"
      op: "Pack"
      input: "dnn/input_from_feature_columns/input_layer/x_bucketized_X_y_bucketized_embedding/strided_slice"
      attr {
        key: "N"
        value {
          i: 1
        }
      }
      attr {
        key: "T"
        value {
          type: DT_INT32
        }
      }
      attr {
        key: "_output_shapes"
        value {
          list {
            shape {
              dim {
                size: 1
              }
            }
          }
        }
      }
    }
    node {
      name: "dnn/input_from_feature_columns/input_layer/x_bucketized_X_y_bucketized_embedding/Tile_1"
      op: "Tile"
      input: "dnn/input_from_feature_columns/input_layer/x_bucketized_X_y_bucketized_embedding/range_1"
      input: "dnn/input_from_feature_columns/input_layer/x_bucketized_X_y_bucketized_embedding/Tile_1/multiples"
      attr {
        key: "T"
        value {
          type: DT_INT32
        }
      }
      attr {
        key: "_output_shapes"
        value {
          list {
            shape {
              dim {
                size: -1
              }
            }
          }
        }
      }
    }
    node {
      name: "dnn/input_from_feature_columns/input_layer/x_bucketized_X_y_bucketized_embedding/Reshape_1/shape"
      op: "Const"
      attr {
        key: "_output_shapes"
        value {
          list {
            shape {
              dim {
                size: 1
              }
            }
          }
        }
      }
      attr {
        key: "dtype"
        value {
          type: DT_INT32
        }
      }
      attr {
        key: "value"
        value {
          tensor {
            dtype: DT_INT32
            tensor_shape {
              dim {
                size: 1
              }
            }
            int_val: -1
          }
        }
      }
    }
    node {
      name: "dnn/input_from_feature_columns/input_layer/x_bucketized_X_y_bucketized_embedding/Reshape_1"
      op: "Reshape"
      input: "dnn/input_from_feature_columns/input_layer/x_bucketized_X_y_bucketized_embedding/Bucketize"
      input: "dnn/input_from_feature_columns/input_layer/x_bucketized_X_y_bucketized_embedding/Reshape_1/shape"
      attr {
        key: "T"
        value {
          type: DT_INT32
        }
      }
      attr {
        key: "_output_shapes"
        value {
          list {
            shape {
              dim {
                size: -1
              }
            }
          }
        }
      }
    }
    node {
      name: "dnn/input_from_feature_columns/input_layer/x_bucketized_X_y_bucketized_embedding/mul/x"
      op: "Const"
      attr {
        key: "_output_shapes"
        value {
          list {
            shape {
            }
          }
        }
      }
      attr {
        key: "dtype"
        value {
          type: DT_INT32
        }
      }
      attr {
        key: "value"
        value {
          tensor {
            dtype: DT_INT32
            tensor_shape {
            }
            int_val: 7
          }
        }
      }
    }
    node {
      name: "dnn/input_from_feature_columns/input_layer/x_bucketized_X_y_bucketized_embedding/mul"
      op: "Mul"
      input: "dnn/input_from_feature_columns/input_layer/x_bucketized_X_y_bucketized_embedding/mul/x"
      input: "dnn/input_from_feature_columns/input_layer/x_bucketized_X_y_bucketized_embedding/Tile_1"
      attr {
        key: "T"
        value {
          type: DT_INT32
        }
      }
      attr {
        key: "_output_shapes"
        value {
          list {
            shape {
              dim {
                size: -1
              }
            }
          }
        }
      }
    }
    node {
      name: "dnn/input_from_feature_columns/input_layer/x_bucketized_X_y_bucketized_embedding/add"
      op: "Add"
      input: "dnn/input_from_feature_columns/input_layer/x_bucketized_X_y_bucketized_embedding/Reshape_1"
      input: "dnn/input_from_feature_columns/input_layer/x_bucketized_X_y_bucketized_embedding/mul"
      attr {
        key: "T"
        value {
          type: DT_INT32
        }
      }
      attr {
        key: "_output_shapes"
        value {
          list {
            shape {
              dim {
                size: -1
              }
            }
          }
        }
      }
    }
    node {
      name: "dnn/input_from_feature_columns/input_layer/x_bucketized_X_y_bucketized_embedding/stack"
      op: "Pack"
      input: "dnn/input_from_feature_columns/input_layer/x_bucketized_X_y_bucketized_embedding/Reshape"
      input: "dnn/input_from_feature_columns/input_layer/x_bucketized_X_y_bucketized_embedding/Tile_1"
      attr {
        key: "N"
        value {
          i: 2
        }
      }
      attr {
        key: "T"
        value {
          type: DT_INT32
        }
      }
      attr {
        key: "_output_shapes"
        value {
          list {
            shape {
              dim {
                size: 2
              }
              dim {
                size: -1
              }
            }
          }
        }
      }
    }
    node {
      name: "dnn/input_from_feature_columns/input_layer/x_bucketized_X_y_bucketized_embedding/transpose/Rank"
      op: "Rank"
      input: "dnn/input_from_feature_columns/input_layer/x_bucketized_X_y_bucketized_embedding/stack"
      attr {
        key: "T"
        value {
          type: DT_INT32
        }
      }
      attr {
        key: "_output_shapes"
        value {
          list {
            shape {
            }
          }
        }
      }
    }
    node {
      name: "dnn/input_from_feature_columns/input_layer/x_bucketized_X_y_bucketized_embedding/transpose/sub/y"
      op: "Const"
      attr {
        key: "_output_shapes"
        value {
          list {
            shape {
            }
          }
        }
      }
      attr {
        key: "dtype"
        value {
          type: DT_INT32
        }
      }
      attr {
        key: "value"
        value {
          tensor {
            dtype: DT_INT32
            tensor_shape {
            }
            int_val: 1
          }
        }
      }
    }
    node {
      name: "dnn/input_from_feature_columns/input_layer/x_bucketized_X_y_bucketized_embedding/transpose/sub"
      op: "Sub"
      input: "dnn/input_from_feature_columns/input_layer/x_bucketized_X_y_bucketized_embedding/transpose/Rank"
      input: "dnn/input_from_feature_columns/input_layer/x_bucketized_X_y_bucketized_embedding/transpose/sub/y"
      attr {
        key: "T"
        value {
          type: DT_INT32
        }
      }
      attr {
        key: "_output_shapes"
        value {
          list {
            shape {
            }
          }
        }
      }
    }
    node {
      name: "dnn/input_from_feature_columns/input_layer/x_bucketized_X_y_bucketized_embedding/transpose/Range/start"
      op: "Const"
      attr {
        key: "_output_shapes"
        value {
          list {
            shape {
            }
          }
        }
      }
      attr {
        key: "dtype"
        value {
          type: DT_INT32
        }
      }
      attr {
        key: "value"
        value {
          tensor {
            dtype: DT_INT32
            tensor_shape {
            }
            int_val: 0
          }
        }
      }
    }
    node {
      name: "dnn/input_from_feature_columns/input_layer/x_bucketized_X_y_bucketized_embedding/transpose/Range/delta"
      op: "Const"
      attr {
        key: "_output_shapes"
        value {
          list {
            shape {
            }
          }
        }
      }
      attr {
        key: "dtype"
        value {
          type: DT_INT32
        }
      }
      attr {
        key: "value"
        value {
          tensor {
            dtype: DT_INT32
            tensor_shape {
            }
            int_val: 1
          }
        }
      }
    }
    node {
      name: "dnn/input_from_feature_columns/input_layer/x_bucketized_X_y_bucketized_embedding/transpose/Range"
      op: "Range"
      input: "dnn/input_from_feature_columns/input_layer/x_bucketized_X_y_bucketized_embedding/transpose/Range/start"
      input: "dnn/input_from_feature_columns/input_layer/x_bucketized_X_y_bucketized_embedding/transpose/Rank"
      input: "dnn/input_from_feature_columns/input_layer/x_bucketized_X_y_bucketized_embedding/transpose/Range/delta"
      attr {
…
            }
          }
        }
      }
    }
    node {
      name: "save/Identity_39"
      op: "Identity"
      input: "save/Identity_38"
      device: "/device:CPU:0"
      attr {
        key: "T"
        value {
          type: DT_FLOAT
        }
      }
      attr {
        key: "_output_shapes"
        value {
          list {
            shape {
              dim {
                size: 1
              }
            }
          }
        }
      }
    }
    node {
      name: "save/Read_20/ReadVariableOp"
      op: "ReadVariableOp"
      input: "dnn/logits/kernel/part_0"
      device: "/device:CPU:0"
      attr {
        key: "_output_shapes"
        value {
          list {
            shape {
              dim {
                size: 8
              }
              dim {
                size: 1
              }
            }
          }
        }
      }
      attr {
        key: "dtype"
        value {
          type: DT_FLOAT
        }
      }
    }
    node {
      name: "save/Identity_40"
      op: "Identity"
      input: "save/Read_20/ReadVariableOp"
      device: "/device:CPU:0"
      attr {
        key: "T"
        value {
          type: DT_FLOAT
        }
      }
      attr {
        key: "_output_shapes"
        value {
          list {
            shape {
              dim {
                size: 8
              }
              dim {
                size: 1
              }
            }
          }
        }
      }
    }
    node {
      name: "save/Identity_41"
      op: "Identity"
      input: "save/Identity_40"
      device: "/device:CPU:0"
      attr {
        key: "T"
        value {
          type: DT_FLOAT
        }
      }
      attr {
        key: "_output_shapes"
        value {
          list {
            shape {
              dim {
                size: 8
              }
              dim {
                size: 1
              }
            }
          }
        }
      }
    }
    node {
      name: "save/Read_21/ReadVariableOp"
      op: "ReadVariableOp"
      input: "linear/linear_model/alpha/weights/part_0"
      device: "/device:CPU:0"
      attr {
        key: "_output_shapes"
        value {
          list {
            shape {
              dim {
                size: 2
              }
              dim {
                size: 1
              }
            }
          }
        }
      }
      attr {
        key: "dtype"
        value {
          type: DT_FLOAT
        }
      }
    }
    node {
      name: "save/Identity_42"
      op: "Identity"
      input: "save/Read_21/ReadVariableOp"
      device: "/device:CPU:0"
      attr {
        key: "T"
        value {
          type: DT_FLOAT
        }
      }
      attr {
        key: "_output_shapes"
        value {
          list {
            shape {
              dim {
                size: 2
              }
              dim {
                size: 1
              }
            }
          }
        }
      }
    }
    node {
      name: "save/Identity_43"
      op: "Identity"
      input: "save/Identity_42"
      device: "/device:CPU:0"
      attr {
        key: "T"
        value {
          type: DT_FLOAT
        }
      }
      attr {
        key: "_output_shapes"
        value {
          list {
            shape {
              dim {
                size: 2
              }
              dim {
                size: 1
              }
            }
          }
        }
      }
    }
    node {
      name: "save/Read_22/ReadVariableOp"
      op: "ReadVariableOp"
      input: "linear/linear_model/alpha_X_beta/weights/part_0"
      device: "/device:CPU:0"
      attr {
        key: "_output_shapes"
        value {
          list {
            shape {
              dim {
                size: 4
              }
              dim {
                size: 1
              }
            }
          }
        }
      }
      attr {
        key: "dtype"
        value {
          type: DT_FLOAT
        }
      }
    }
    node {
      name: "save/Identity_44"
      op: "Identity"
      input: "save/Read_22/ReadVariableOp"
      device: "/device:CPU:0"
      attr {
        key: "T"
        value {
          type: DT_FLOAT
        }
      }
      attr {
        key: "_output_shapes"
        value {
          list {
            shape {
              dim {
                size: 4
              }
              dim {
                size: 1
              }
            }
          }
        }
      }
    }
    node {
      name: "save/Identity_45"
      op: "Identity"
      input: "save/Identity_44"
      device: "/device:CPU:0"
      attr {
        key: "T"
        value {
          type: DT_FLOAT
        }
      }
      attr {
        key: "_output_shapes"
        value {
          list {
            shape {
              dim {
                size: 4
              }
              dim {
                size: 1
              }
            }
          }
        }
      }
    }
    node {
      name: "save/Read_23/ReadVariableOp"
      op: "ReadVariableOp"
      input: "linear/linear_model/beta/weights/part_0"
      device: "/device:CPU:0"
      attr {
        key: "_output_shapes"
        value {
          list {
            shape {
              dim {
                size: 2
              }
              dim {
                size: 1
              }
            }
          }
        }
      }
      attr {
        key: "dtype"
        value {
          type: DT_FLOAT
        }
      }
    }
    node {
      name: "save/Identity_46"
      op: "Identity"
      input: "save/Read_23/ReadVariableOp"
      device: "/device:CPU:0"
      attr {
        key: "T"
        value {
          type: DT_FLOAT
        }
      }
      attr {
        key: "_output_shapes"
        value {
          list {
            shape {
              dim {
                size: 2
              }
              dim {
                size: 1
              }
            }
          }
        }
      }
    }
    node {
      name: "save/Identity_47"
      op: "Identity"
      input: "save/Identity_46"
      device: "/device:CPU:0"
      attr {
        key: "T"
        value {
          type: DT_FLOAT
        }
      }
      attr {
        key: "_output_shapes"
        value {
          list {
            shape {
              dim {
                size: 2
              }
              dim {
                size: 1
              }
            }
          }
        }
      }
    }
    node {
      name: "save/Read_24/ReadVariableOp"
      op: "ReadVariableOp"
      input: "linear/linear_model/bias_weights/part_0"
      device: "/device:CPU:0"
      attr {
        key: "_output_shapes"
        value {
          list {
            shape {
              dim {
                size: 1
              }
            }
          }
        }
      }
      attr {
        key: "dtype"
        value {
          type: DT_FLOAT
        }
      }
    }
    node {
      name: "save/Identity_48"
      op: "Identity"
      input: "save/Read_24/ReadVariableOp"
      device: "/device:CPU:0"
      attr {
        key: "T"
        value {
          type: DT_FLOAT
        }
      }
      attr {
        key: "_output_shapes"
        value {
          list {
            shape {
              dim {
                size: 1
              }
            }
          }
        }
      }
    }
    node {
      name: "save/Identity_49"
      op: "Identity"
      input: "save/Identity_48"
      device: "/device:CPU:0"
      attr {
        key: "T"
        value {
          type: DT_FLOAT
        }
      }
      attr {
        key: "_output_shapes"
        value {
          list {
            shape {
              dim {
                size: 1
              }
            }
          }
        }
      }
    }
    node {
      name: "save/Read_25/ReadVariableOp"
      op: "ReadVariableOp"
      input: "linear/linear_model/x_bucketized_X_y_bucketized/weights/part_0"
      device: "/device:CPU:0"
      attr {
        key: "_output_shapes"
        value {
          list {
            shape {
              dim {
                size: 36
              }
              dim {
                size: 1
              }
            }
          }
        }
      }
      attr {
        key: "dtype"
        value {
          type: DT_FLOAT
        }
      }
    }
    node {
      name: "save/Identity_50"
      op: "Identity"
      input: "save/Read_25/ReadVariableOp"
      device: "/device:CPU:0"
      attr {
        key: "T"
        value {
          type: DT_FLOAT
        }
      }
      attr {
        key: "_output_shapes"
        value {
          list {
            shape {
              dim {
                size: 36
              }
              dim {
                size: 1
              }
            }
          }
        }
      }
    }
    node {
      name: "save/Identity_51"
      op: "Identity"
      input: "save/Identity_50"
      device: "/device:CPU:0"
      attr {
        key: "T"
        value {
          type: DT_FLOAT
        }
      }
      attr {
        key: "_output_shapes"
        value {
          list {
            shape {
              dim {
                size: 36
              }
              dim {
                size: 1
              }
            }
          }
        }
      }
    }
    node {
      name: "save/SaveV2_1/tensor_names"
      op: "Const"
      device: "/device:CPU:0"
      attr {
        key: "_output_shapes"
        value {
          list {
            shape {
              dim {
                size: 13
              }
            }
          }
        }
      }
      attr {
        key: "dtype"
        value {
          type: DT_STRING
        }
      }
      attr {
        key: "value"
        value {
          tensor {
            dtype: DT_STRING
            tensor_shape {
              dim {
                size: 13
              }
            }
            string_val: "dnn/hiddenlayer_0/bias"
            string_val: "dnn/hiddenlayer_0/kernel"
            string_val: "dnn/hiddenlayer_1/bias"
            string_val: "dnn/hiddenlayer_1/kernel"
            string_val: "dnn/hiddenlayer_2/bias"
            string_val: "dnn/hiddenlayer_2/kernel"
            string_val: "dnn/logits/bias"
            string_val: "dnn/logits/kernel"
            string_val: "linear/linear_model/alpha/weights"
            string_val: "linear/linear_model/alpha_X_beta/weights"
            string_val: "linear/linear_model/beta/weights"
            string_val: "linear/linear_model/bias_weights"
            string_val: "linear/linear_model/x_bucketized_X_y_bucketized/weights"
          }
        }
      }
    }
    node {
      name: "save/SaveV2_1/shape_and_slices"
      op: "Const"
      device: "/device:CPU:0"
      attr {
        key: "_output_shapes"
        value {
          list {
            shape {
              dim {
                size: 13
              }
            }
          }
        }
      }
      attr {
        key: "dtype"
        value {
          type: DT_STRING
        }
      }
      attr {
        key: "value"
        value {
          tensor {
            dtype: DT_STRING
            tensor_shape {
              dim {
                size: 13
              }
            }
            string_val: "16 0,16"
            string_val: "15 16 0,15:0,16"
            string_val: "12 0,12"
            string_val: "16 12 0,16:0,12"
            string_val: "8 0,8"
            string_val: "12 8 0,12:0,8"
            string_val: "1 0,1"
            string_val: "8 1 0,8:0,1"
            string_val: "2 1 0,2:0,1"
            string_val: "4 1 0,4:0,1"
            string_val: "2 1 0,2:0,1"
            string_val: "1 0,1"
            string_val: "36 1 0,36:0,1"
          }
        }
      }
    }
    node {
      name: "save/SaveV2_1"
      op: "SaveV2"
      input: "save/ShardedFilename_1"
      input: "save/SaveV2_1/tensor_names"
      input: "save/SaveV2_1/shape_and_slices"
      input: "save/Identity_27"
      input: "save/Identity_29"
      input: "save/Identity_31"
      input: "save/Identity_33"
      input: "save/Identity_35"
      input: "save/Identity_37"
      input: "save/Identity_39"
      input: "save/Identity_41"
      input: "save/Identity_43"
      input: "save/Identity_45"
      input: "save/Identity_47"
      input: "save/Identity_49"
      input: "save/Identity_51"
      device: "/device:CPU:0"
      attr {
        key: "dtypes"
        value {
          list {
            type: DT_FLOAT
            type: DT_FLOAT
            type: DT_FLOAT
            type: DT_FLOAT
            type: DT_FLOAT
            type: DT_FLOAT
            type: DT_FLOAT
            type: DT_FLOAT
            type: DT_FLOAT
            type: DT_FLOAT
            type: DT_FLOAT
            type: DT_FLOAT
            type: DT_FLOAT
          }
        }
      }
    }
    node {
      name: "save/control_dependency_1"
      op: "Identity"
      input: "save/ShardedFilename_1"
      input: "^save/SaveV2_1"
      device: "/device:CPU:0"
      attr {
        key: "T"
        value {
          type: DT_STRING
        }
      }
      attr {
        key: "_class"
        value {
          list {
            s: "loc:@save/ShardedFilename_1"
          }
        }
      }
      attr {
        key: "_output_shapes"
        value {
          list {
            shape {
            }
          }
        }
      }
    }
    node {
      name: "save/MergeV2Checkpoints/checkpoint_prefixes"
      op: "Pack"
      input: "save/ShardedFilename"
      input: "save/ShardedFilename_1"
      input: "^save/control_dependency"
      input: "^save/control_dependency_1"
      device: "/device:CPU:0"
      attr {
        key: "N"
        value {
          i: 2
        }
      }
      attr {
        key: "T"
        value {
          type: DT_STRING
        }
      }
      attr {
        key: "_output_shapes"
        value {
          list {
            shape {
              dim {
                size: 2
              }
            }
          }
        }
      }
    }
    node {
      name: "save/MergeV2Checkpoints"
      op: "MergeV2Checkpoints"
      input: "save/MergeV2Checkpoints/checkpoint_prefixes"
      input: "save/Const"
      device: "/device:CPU:0"
    }
    node {
      name: "save/Identity_52"
      op: "Identity"
      input: "save/Const"
      input: "^save/MergeV2Checkpoints"
      input: "^save/control_dependency"
      input: "^save/control_dependency_1"
      device: "/device:CPU:0"
      attr {
        key: "T"
        value {
          type: DT_STRING
        }
      }
      attr {
        key: "_output_shapes"
        value {
          list {
            shape {
            }
          }
        }
      }
    }
    node {
      name: "save/RestoreV2/tensor_names"
      op: "Const"
      device: "/device:CPU:0"
      attr {
        key: "_output_shapes"
        value {
          list {
            shape {
              dim {
                size: 2
              }
            }
          }
        }
      }
      attr {
        key: "dtype"
        value {
          type: DT_STRING
        }
      }
      attr {
        key: "value"
        value {
          tensor {
            dtype: DT_STRING
            tensor_shape {
              dim {
                size: 2
              }
            }
            string_val: "dnn/input_from_feature_columns/input_layer/x_bucketized_X_y_bucketized_embedding/embedding_weights"
            string_val: "global_step"
          }
        }
      }
    }
    node {
      name: "save/RestoreV2/shape_and_slices"
      op: "Const"
      device: "/device:CPU:0"
      attr {
        key: "_output_shapes"
        value {
          list {
            shape {
              dim {
                size: 2
              }
            }
          }
        }
      }
      attr {
        key: "dtype"
        value {
          type: DT_STRING
        }
      }
      attr {
        key: "value"
        value {
          tensor {
            dtype: DT_STRING
            tensor_shape {
              dim {
                size: 2
              }
            }
            string_val: "36 3 0,36:0,3"
            string_val: ""
          }
        }
      }
    }
    node {
      name: "save/RestoreV2"
      op: "RestoreV2"
      input: "save/Const"
      input: "save/RestoreV2/tensor_names"
      input: "save/RestoreV2/shape_and_slices"
      device: "/device:CPU:0"
      attr {
        key: "_output_shapes"
        value {
          list {
            shape {
              dim {
                size: 36
              }
              dim {
                size: 3
              }
            }
            shape {
              unknown_rank: true
            }
          }
        }
      }
      attr {
        key: "dtypes"
        value {
          list {
            type: DT_FLOAT
            type: DT_INT64
          }
        }
      }
    }
    node {
      name: "save/Assign"
      op: "Assign"
      input: "dnn/input_from_feature_columns/input_layer/x_bucketized_X_y_bucketized_embedding/embedding_weights/part_0"
      input: "save/RestoreV2"
      attr {
        key: "T"
        value {
          type: DT_FLOAT
        }
      }
      attr {
        key: "_class"
        value {
          list {
            s: "loc:@dnn/input_from_feature_columns/input_layer/x_bucketized_X_y_bucketized_embedding/embedding_weights/part_0"
          }
        }
      }
      attr {
        key: "_output_shapes"
        value {
          list {
            shape {
              dim {
                size: 36
              }
              dim {
                size: 3
              }
            }
          }
        }
      }
    }
    node {
      name: "save/Assign_1"
      op: "Assign"
      input: "global_step"
      input: "save/RestoreV2:1"
      attr {
        key: "T"
        value {
          type: DT_INT64
        }
      }
      attr {
        key: "_class"
        value {
          list {
            s: "loc:@global_step"
          }
        }
      }
      attr {
        key: "_output_shapes"
        value {
          list {
            shape {
            }
          }
        }
      }
    }
    node {
      name: "save/restore_shard"
      op: "NoOp"
      input: "^save/Assign"
      input: "^save/Assign_1"
    }
    node {
      name: "save/RestoreV2_1/tensor_names"
      op: "Const"
      device: "/device:CPU:0"
      attr {
        key: "_output_shapes"
        value {
          list {
            shape {
              dim {
                size: 13
              }
            }
          }
        }
      }
      attr {
        key: "dtype"
        value {
          type: DT_STRING
        }
      }
      attr {
        key: "value"
        value {
          tensor {
            dtype: DT_STRING
            tensor_shape {
              dim {
                size: 13
              }
            }
            string_val: "dnn/hiddenlayer_0/bias"
            string_val: "dnn/hiddenlayer_0/kernel"
            string_val: "dnn/hiddenlayer_1/bias"
            string_val: "dnn/hiddenlayer_1/kernel"
            string_val: "dnn/hiddenlayer_2/bias"
            string_val: "dnn/hiddenlayer_2/kernel"
            string_val: "dnn/logits/bias"
            string_val: "dnn/logits/kernel"
            string_val: "linear/linear_model/alpha/weights"
            string_val: "linear/linear_model/alpha_X_beta/weights"
            string_val: "linear/linear_model/beta/weights"
            string_val: "linear/linear_model/bias_weights"
            string_val: "linear/linear_model/x_bucketized_X_y_bucketized/weights"
          }
        }
      }
    }
    node {
      name: "save/RestoreV2_1/shape_and_slices"
      op: "Const"
      device: "/device:CPU:0"
      attr {
        key: "_output_shapes"
        value {
          list {
            shape {
              dim {
                size: 13
              }
            }
          }
        }
      }
      attr {
        key: "dtype"
        value {
          type: DT_STRING
        }
      }
      attr {
        key: "value"
        value {
          tensor {
            dtype: DT_STRING
            tensor_shape {
              dim {
                size: 13
              }
            }
            string_val: "16 0,16"
            string_val: "15 16 0,15:0,16"
            string_val: "12 0,12"
            string_val: "16 12 0,16:0,12"
            string_val: "8 0,8"
            string_val: "12 8 0,12:0,8"
            string_val: "1 0,1"
            string_val: "8 1 0,8:0,1"
            string_val: "2 1 0,2:0,1"
            string_val: "4 1 0,4:0,1"
            string_val: "2 1 0,2:0,1"
            string_val: "1 0,1"
            string_val: "36 1 0,36:0,1"
          }
        }
      }
    }
    node {
      name: "save/RestoreV2_1"
      op: "RestoreV2"
      input: "save/Const"
      input: "save/RestoreV2_1/tensor_names"
      input: "save/RestoreV2_1/shape_and_slices"
      device: "/device:CPU:0"
      attr {
        key: "_output_shapes"
        value {
          list {
            shape {
              dim {
                size: 16
              }
            }
            shape {
              dim {
                size: 15
              }
              dim {
                size: 16
              }
            }
            shape {
              dim {
                size: 12
              }
            }
            shape {
              dim {
                size: 16
              }
              dim {
                size: 12
              }
            }
            shape {
              dim {
                size: 8
              }
            }
            shape {
              dim {
                size: 12
              }
              dim {
                size: 8
              }
            }
            shape {
              dim {
                size: 1
              }
            }
            shape {
              dim {
                size: 8
              }
              dim {
                size: 1
              }
            }
            shape {
              dim {
                size: 2
              }
              dim {
                size: 1
              }
            }
            shape {
              dim {
                size: 4
              }
              dim {
                size: 1
              }
            }
            shape {
              dim {
                size: 2
              }
              dim {
                size: 1
              }
            }
            shape {
              dim {
                size: 1
              }
            }
            shape {
              dim {
                size: 36
              }
              dim {
                size: 1
              }
            }
          }
        }
      }
      attr {
        key: "dtypes"
        value {
          list {
            type: DT_FLOAT
            type: DT_FLOAT
            type: DT_FLOAT
            type: DT_FLOAT
            type: DT_FLOAT
            type: DT_FLOAT
            type: DT_FLOAT
            type: DT_FLOAT
            type: DT_FLOAT
            type: DT_FLOAT
            type: DT_FLOAT
            type: DT_FLOAT
            type: DT_FLOAT
          }
        }
      }
    }
    node {
      name: "save/Identity_53"
      op: "Identity"
      input: "save/RestoreV2_1"
      device: "/device:CPU:0"
      attr {
        key: "T"
        value {
          type: DT_FLOAT
        }
      }
      attr {
        key: "_output_shapes"
        value {
          list {
            shape {
              dim {
                size: 16
              }
            }
          }
        }
      }
    }
    node {
      name: "save/AssignVariableOp"
      op: "AssignVariableOp"
      input: "dnn/hiddenlayer_0/bias/part_0"
      input: "save/Identity_53"
      device: "/device:CPU:0"
      attr {
        key: "dtype"
        value {
          type: DT_FLOAT
        }
      }
    }
    node {
      name: "save/Identity_54"
      op: "Identity"
      input: "save/RestoreV2_1:1"
      device: "/device:CPU:0"
      attr {
        key: "T"
        value {
          type: DT_FLOAT
        }
      }
      attr {
        key: "_output_shapes"
        value {
          list {
            shape {
              dim {
                size: 15
              }
              dim {
                size: 16
              }
            }
          }
        }
      }
    }
    node {
      name: "save/AssignVariableOp_1"
      op: "AssignVariableOp"
      input: "dnn/hiddenlayer_0/kernel/part_0"
      input: "save/Identity_54"
      device: "/device:CPU:0"
      attr {
        key: "dtype"
        value {
          type: DT_FLOAT
        }
      }
    }
    node {
      name: "save/Identity_55"
      op: "Identity"
      input: "save/RestoreV2_1:2"
      device: "/device:CPU:0"
      attr {
        key: "T"
        value {
          type: DT_FLOAT
        }
      }
      attr {
        key: "_output_shapes"
        value {
          list {
            shape {
              dim {
                size: 12
              }
            }
          }
        }
      }
    }
    node {
      name: "save/AssignVariableOp_2"
      op: "AssignVariableOp"
      input: "dnn/hiddenlayer_1/bias/part_0"
      input: "save/Identity_55"
      device: "/device:CPU:0"
      attr {
        key: "dtype"
        value {
          type: DT_FLOAT
        }
      }
    }
    node {
      name: "save/Identity_56"
      op: "Identity"
      input: "save/RestoreV2_1:3"
      device: "/device:CPU:0"
      attr {
        key: "T"
        value {
          type: DT_FLOAT
        }
      }
      attr {
        key: "_output_shapes"
        value {
          list {
            shape {
              dim {
                size: 16
              }
              dim {
                size: 12
              }
            }
          }
        }
      }
    }
    node {
      name: "save/AssignVariableOp_3"
      op: "AssignVariableOp"
      input: "dnn/hiddenlayer_1/kernel/part_0"
      input: "save/Identity_56"
      device: "/device:CPU:0"
      attr {
        key: "dtype"
        value {
          type: DT_FLOAT
        }
      }
    }
    node {
      name: "save/Identity_57"
      op: "Identity"
      input: "save/RestoreV2_1:4"
      device: "/device:CPU:0"
      attr {
        key: "T"
        value {
          type: DT_FLOAT
        }
      }
      attr {
        key: "_output_shapes"
        value {
          list {
            shape {
              dim {
                size: 8
              }
            }
          }
        }
      }
    }
    node {
      name: "save/AssignVariableOp_4"
      op: "AssignVariableOp"
      input: "dnn/hiddenlayer_2/bias/part_0"
      input: "save/Identity_57"
      device: "/device:CPU:0"
      attr {
        key: "dtype"
        value {
          type: DT_FLOAT
        }
      }
    }
    node {
      name: "save/Identity_58"
      op: "Identity"
      input: "save/RestoreV2_1:5"
      device: "/device:CPU:0"
      attr {
        key: "T"
        value {
          type: DT_FLOAT
        }
      }
      attr {
        key: "_output_shapes"
        value {
          list {
            shape {
              dim {
                size: 12
              }
              dim {
                size: 8
              }
            }
          }
        }
      }
    }
    node {
      name: "save/AssignVariableOp_5"
      op: "AssignVariableOp"
      input: "dnn/hiddenlayer_2/kernel/part_0"
      input: "save/Identity_58"
      device: "/device:CPU:0"
      attr {
        key: "dtype"
        value {
          type: DT_FLOAT
        }
      }
    }
    node {
      name: "save/Identity_59"
      op: "Identity"
      input: "save/RestoreV2_1:6"
      device: "/device:CPU:0"
      attr {
        key: "T"
        value {
          type: DT_FLOAT
        }
      }
      attr {
        key: "_output_shapes"
        value {
          list {
            shape {
              dim {
                size: 1
              }
            }
          }
        }
      }
    }
    node {
      name: "save/AssignVariableOp_6"
      op: "AssignVariableOp"
      input: "dnn/logits/bias/part_0"
      input: "save/Identity_59"
      device: "/device:CPU:0"
      attr {
        key: "dtype"
        value {
          type: DT_FLOAT
        }
      }
    }
    node {
      name: "save/Identity_60"
      op: "Identity"
      input: "save/RestoreV2_1:7"
      device: "/device:CPU:0"
      attr {
        key: "T"
        value {
          type: DT_FLOAT
        }
      }
      attr {
        key: "_output_shapes"
        value {
          list {
            shape {
              dim {
                size: 8
              }
              dim {
                size: 1
              }
            }
          }
        }
      }
    }
    node {
      name: "save/AssignVariableOp_7"
      op: "AssignVariableOp"
      input: "dnn/logits/kernel/part_0"
      input: "save/Identity_60"
      device: "/device:CPU:0"
      attr {
        key: "dtype"
        value {
          type: DT_FLOAT
        }
      }
    }
    node {
      name: "save/Identity_61"
      op: "Identity"
      input: "save/RestoreV2_1:8"
      device: "/device:CPU:0"
      attr {
        key: "T"
        value {
          type: DT_FLOAT
        }
      }
      attr {
        key: "_output_shapes"
        value {
          list {
            shape {
              dim {
                size: 2
              }
              dim {
                size: 1
              }
            }
          }
        }
      }
    }
    node {
      name: "save/AssignVariableOp_8"
      op: "AssignVariableOp"
      input: "linear/linear_model/alpha/weights/part_0"
      input: "save/Identity_61"
      device: "/device:CPU:0"
      attr {
        key: "dtype"
        value {
          type: DT_FLOAT
        }
      }
    }
    node {
      name: "save/Identity_62"
      op: "Identity"
      input: "save/RestoreV2_1:9"
      device: "/device:CPU:0"
      attr {
        key: "T"
        value {
          type: DT_FLOAT
        }
      }
      attr {
        key: "_output_shapes"
        value {
          list {
            shape {
              dim {
                size: 4
              }
              dim {
                size: 1
              }
            }
          }
        }
      }
    }
    node {
      name: "save/AssignVariableOp_9"
      op: "AssignVariableOp"
      input: "linear/linear_model/alpha_X_beta/weights/part_0"
      input: "save/Identity_62"
      device: "/device:CPU:0"
      attr {
        key: "dtype"
        value {
          type: DT_FLOAT
        }
      }
    }
    node {
      name: "save/Identity_63"
      op: "Identity"
      input: "save/RestoreV2_1:10"
      device: "/device:CPU:0"
      attr {
        key: "T"
        value {
          type: DT_FLOAT
        }
      }
      attr {
        key: "_output_shapes"
        value {
          list {
            shape {
              dim {
                size: 2
              }
              dim {
                size: 1
              }
            }
          }
        }
      }
    }
    node {
      name: "save/AssignVariableOp_10"
      op: "AssignVariableOp"
      input: "linear/linear_model/beta/weights/part_0"
      input: "save/Identity_63"
      device: "/device:CPU:0"
      attr {
        key: "dtype"
        value {
          type: DT_FLOAT
        }
      }
    }
    node {
      name: "save/Identity_64"
      op: "Identity"
      input: "save/RestoreV2_1:11"
      device: "/device:CPU:0"
      attr {
        key: "T"
        value {
          type: DT_FLOAT
        }
      }
      attr {
        key: "_output_shapes"
        value {
          list {
            shape {
              dim {
                size: 1
              }
            }
          }
        }
      }
    }
    node {
      name: "save/AssignVariableOp_11"
      op: "AssignVariableOp"
      input: "linear/linear_model/bias_weights/part_0"
      input: "save/Identity_64"
      device: "/device:CPU:0"
      attr {
        key: "dtype"
        value {
          type: DT_FLOAT
        }
      }
    }
    node {
      name: "save/Identity_65"
      op: "Identity"
      input: "save/RestoreV2_1:12"
      device: "/device:CPU:0"
      attr {
        key: "T"
        value {
          type: DT_FLOAT
        }
      }
      attr {
        key: "_output_shapes"
        value {
          list {
            shape {
              dim {
                size: 36
              }
              dim {
                size: 1
              }
            }
          }
        }
      }
    }
    node {
      name: "save/AssignVariableOp_12"
      op: "AssignVariableOp"
      input: "linear/linear_model/x_bucketized_X_y_bucketized/weights/part_0"
      input: "save/Identity_65"
      device: "/device:CPU:0"
      attr {
        key: "dtype"
        value {
          type: DT_FLOAT
        }
      }
    }
    node {
      name: "save/restore_shard_1"
      op: "NoOp"
      input: "^save/AssignVariableOp"
      input: "^save/AssignVariableOp_1"
      input: "^save/AssignVariableOp_10"
      input: "^save/AssignVariableOp_11"
      input: "^save/AssignVariableOp_12"
      input: "^save/AssignVariableOp_2"
      input: "^save/AssignVariableOp_3"
      input: "^save/AssignVariableOp_4"
      input: "^save/AssignVariableOp_5"
      input: "^save/AssignVariableOp_6"
      input: "^save/AssignVariableOp_7"
      input: "^save/AssignVariableOp_8"
      input: "^save/AssignVariableOp_9"
      device: "/device:CPU:0"
    }
    node {
      name: "save/restore_all/NoOp"
      op: "NoOp"
      input: "^save/restore_shard"
    }
    node {
      name: "save/restore_all/NoOp_1"
      op: "NoOp"
      input: "^save/restore_shard_1"
      device: "/device:CPU:0"
    }
    node {
      name: "save/restore_all"
      op: "NoOp"
      input: "^save/restore_all/NoOp"
      input: "^save/restore_all/NoOp_1"
    }
    versions {
      producer: 27
    }
  }
  saver_def {
    filename_tensor_name: "save/Const:0"
    save_tensor_name: "save/Identity_52:0"
    restore_op_name: "save/restore_all"
    max_to_keep: 5
    sharded: true
    keep_checkpoint_every_n_hours: 10000.0
    version: V2
  }
  collection_def {
    key: "global_step"
    value {
      bytes_list {
        value: "\n\rglobal_step:0\022\022global_step/Assign\032\022global_step/read:02\037global_step/Initializer/zeros:0"
      }
    }
  }
  collection_def {
    key: "model_variables"
    value {
      bytes_list {
        value: "\nkdnn/input_from_feature_columns/input_layer/x_bucketized_X_y_bucketized_embedding/embedding_weights/part_0:0\022pdnn/input_from_feature_columns/input_layer/x_bucketized_X_y_bucketized_embedding/embedding_weights/part_0/Assign\032pdnn/input_from_feature_columns/input_layer/x_bucketized_X_y_bucketized_embedding/embedding_weights/part_0/read:0\"p\nbdnn/input_from_feature_columns/input_layer/x_bucketized_X_y_bucketized_embedding/embedding_weights\022\002$\003\032\002\000\000\"\002$\0032\210\001dnn/input_from_feature_columns/input_layer/x_bucketized_X_y_bucketized_embedding/embedding_weights/part_0/Initializer/truncated_normal:08\001"
        value: "\n*linear/linear_model/alpha/weights/part_0:0\022/linear/linear_model/alpha/weights/part_0/Assign\032>linear/linear_model/alpha/weights/part_0/Read/ReadVariableOp:0\"/\n!linear/linear_model/alpha/weights\022\002\002\001\032\002\000\000\"\002\002\001(\0012<linear/linear_model/alpha/weights/part_0/Initializer/zeros:08\001"
        value: "\n1linear/linear_model/alpha_X_beta/weights/part_0:0\0226linear/linear_model/alpha_X_beta/weights/part_0/Assign\032Elinear/linear_model/alpha_X_beta/weights/part_0/Read/ReadVariableOp:0\"6\n(linear/linear_model/alpha_X_beta/weights\022\002\004\001\032\002\000\000\"\002\004\001(\0012Clinear/linear_model/alpha_X_beta/weights/part_0/Initializer/zeros:08\001"
        value: "\n)linear/linear_model/beta/weights/part_0:0\022.linear/linear_model/beta/weights/part_0/Assign\032=linear/linear_model/beta/weights/part_0/Read/ReadVariableOp:0\".\n linear/linear_model/beta/weights\022\002\002\001\032\002\000\000\"\002\002\001(\0012;linear/linear_model/beta/weights/part_0/Initializer/zeros:08\001"
        value: "\n@linear/linear_model/x_bucketized_X_y_bucketized/weights/part_0:0\022Elinear/linear_model/x_bucketized_X_y_bucketized/weights/part_0/Assign\032Tlinear/linear_model/x_bucketized_X_y_bucketized/weights/part_0/Read/ReadVariableOp:0\"E\n7linear/linear_model/x_bucketized_X_y_bucketized/weights\022\002$\001\032\002\000\000\"\002$\001(\0012Rlinear/linear_model/x_bucketized_X_y_bucketized/weights/part_0/Initializer/zeros:08\001"
        value: "\n)linear/linear_model/bias_weights/part_0:0\022.linear/linear_model/bias_weights/part_0/Assign\032=linear/linear_model/bias_weights/part_0/Read/ReadVariableOp:0\"+\n linear/linear_model/bias_weights\022\001\001\032\001\000\"\001\001(\0012;linear/linear_model/bias_weights/part_0/Initializer/zeros:08\001"
      }
    }
  }
  collection_def {
    key: "saved_model_main_op"
    value {
      node_list {
        value: "group_deps"
      }
    }
  }
  collection_def {
    key: "summaries"
    value {
      node_list {
        value: "dnn/dnn/hiddenlayer_0/fraction_of_zero_values:0"
        value: "dnn/dnn/hiddenlayer_0/activation:0"
        value: "dnn/dnn/hiddenlayer_1/fraction_of_zero_values:0"
        value: "dnn/dnn/hiddenlayer_1/activation:0"
        value: "dnn/dnn/hiddenlayer_2/fraction_of_zero_values:0"
        value: "dnn/dnn/hiddenlayer_2/activation:0"
        value: "dnn/dnn/logits/fraction_of_zero_values:0"
        value: "dnn/dnn/logits/activation:0"
        value: "linear/bias:0"
        value: "linear/fraction_of_zero_weights:0"
        value: "linear/linear/fraction_of_zero_values:0"
        value: "linear/linear/activation:0"
      }
    }
  }
  collection_def {
    key: "table_initializer"
    value {
      node_list {
        value: "dnn/input_from_feature_columns/input_layer/alpha_indicator/alpha_lookup/hash_table/table_init"
        value: "dnn/input_from_feature_columns/input_layer/beta_indicator/beta_lookup/hash_table/table_init"
        value: "linear/linear_model/linear_model/alpha/alpha_lookup/hash_table/table_init"
        value: "linear/linear_model/linear_model/alpha_X_beta/beta_lookup/hash_table/table_init"
      }
    }
  }
  collection_def {
    key: "trainable_variables"
    value {
      bytes_list {
        value: "\nkdnn/input_from_feature_columns/input_layer/x_bucketized_X_y_bucketized_embedding/embedding_weights/part_0:0\022pdnn/input_from_feature_columns/input_layer/x_bucketized_X_y_bucketized_embedding/embedding_weights/part_0/Assign\032pdnn/input_from_feature_columns/input_layer/x_bucketized_X_y_bucketized_embedding/embedding_weights/part_0/read:0\"p\nbdnn/input_from_feature_columns/input_layer/x_bucketized_X_y_bucketized_embedding/embedding_weights\022\002$\003\032\002\000\000\"\002$\0032\210\001dnn/input_from_feature_columns/input_layer/x_bucketized_X_y_bucketized_embedding/embedding_weights/part_0/Initializer/truncated_normal:08\001"
        value: "\n!dnn/hiddenlayer_0/kernel/part_0:0\022&dnn/hiddenlayer_0/kernel/part_0/Assign\0325dnn/hiddenlayer_0/kernel/part_0/Read/ReadVariableOp:0\"&\n\030dnn/hiddenlayer_0/kernel\022\002\017\020\032\002\000\000\"\002\017\020(\0012<dnn/hiddenlayer_0/kernel/part_0/Initializer/random_uniform:08\001"
        value: "\n\037dnn/hiddenlayer_0/bias/part_0:0\022$dnn/hiddenlayer_0/bias/part_0/Assign\0323dnn/hiddenlayer_0/bias/part_0/Read/ReadVariableOp:0\"!\n\026dnn/hiddenlayer_0/bias\022\001\020\032\001\000\"\001\020(\00121dnn/hiddenlayer_0/bias/part_0/Initializer/zeros:08\001"
        value: "\n!dnn/hiddenlayer_1/kernel/part_0:0\022&dnn/hiddenlayer_1/kernel/part_0/Assign\0325dnn/hiddenlayer_1/kernel/part_0/Read/ReadVariableOp:0\"&\n\030dnn/hiddenlayer_1/kernel\022\002\020\014\032\002\000\000\"\002\020\014(\0012<dnn/hiddenlayer_1/kernel/part_0/Initializer/random_uniform:08\001"
        value: "\n\037dnn/hiddenlayer_1/bias/part_0:0\022$dnn/hiddenlayer_1/bias/part_0/Assign\0323dnn/hiddenlayer_1/bias/part_0/Read/ReadVariableOp:0\"!\n\026dnn/hiddenlayer_1/bias\022\001\014\032\001\000\"\001\014(\00121dnn/hiddenlayer_1/bias/part_0/Initializer/zeros:08\001"
        value: "\n!dnn/hiddenlayer_2/kernel/part_0:0\022&dnn/hiddenlayer_2/kernel/part_0/Assign\0325dnn/hiddenlayer_2/kernel/part_0/Read/ReadVariableOp:0\"&\n\030dnn/hiddenlayer_2/kernel\022\002\014\010\032\002\000\000\"\002\014\010(\0012<dnn/hiddenlayer_2/kernel/part_0/Initializer/random_uniform:08\001"
        value: "\n\037dnn/hiddenlayer_2/bias/part_0:0\022$dnn/hiddenlayer_2/bias/part_0/Assign\0323dnn/hiddenlayer_2/bias/part_0/Read/ReadVariableOp:0\"!\n\026dnn/hiddenlayer_2/bias\022\001\010\032\001\000\"\001\010(\00121dnn/hiddenlayer_2/bias/part_0/Initializer/zeros:08\001"
        value: "\n\032dnn/logits/kernel/part_0:0\022\037dnn/logits/kernel/part_0/Assign\032.dnn/logits/kernel/part_0/Read/ReadVariableOp:0\"\037\n\021dnn/logits/kernel\022\002\010\001\032\002\000\000\"\002\010\001(\00125dnn/logits/kernel/part_0/Initializer/random_uniform:08\001"
        value: "\n\030dnn/logits/bias/part_0:0\022\035dnn/logits/bias/part_0/Assign\032,dnn/logits/bias/part_0/Read/ReadVariableOp:0\"\032\n\017dnn/logits/bias\022\001\001\032\001\000\"\001\001(\0012*dnn/logits/bias/part_0/Initializer/zeros:08\001"
        value: "\n*linear/linear_model/alpha/weights/part_0:0\022/linear/linear_model/alpha/weights/part_0/Assign\032>linear/linear_model/alpha/weights/part_0/Read/ReadVariableOp:0\"/\n!linear/linear_model/alpha/weights\022\002\002\001\032\002\000\000\"\002\002\001(\0012<linear/linear_model/alpha/weights/part_0/Initializer/zeros:08\001"
        value: "\n1linear/linear_model/alpha_X_beta/weights/part_0:0\0226linear/linear_model/alpha_X_beta/weights/part_0/Assign\032Elinear/linear_model/alpha_X_beta/weights/part_0/Read/ReadVariableOp:0\"6\n(linear/linear_model/alpha_X_beta/weights\022\002\004\001\032\002\000\000\"\002\004\001(\0012Clinear/linear_model/alpha_X_beta/weights/part_0/Initializer/zeros:08\001"
        value: "\n)linear/linear_model/beta/weights/part_0:0\022.linear/linear_model/beta/weights/part_0/Assign\032=linear/linear_model/beta/weights/part_0/Read/ReadVariableOp:0\".\n linear/linear_model/beta/weights\022\002\002\001\032\002\000\000\"\002\002\001(\0012;linear/linear_model/beta/weights/part_0/Initializer/zeros:08\001"
        value: "\n@linear/linear_model/x_bucketized_X_y_bucketized/weights/part_0:0\022Elinear/linear_model/x_bucketized_X_y_bucketized/weights/part_0/Assign\032Tlinear/linear_model/x_bucketized_X_y_bucketized/weights/part_0/Read/ReadVariableOp:0\"E\n7linear/linear_model/x_bucketized_X_y_bucketized/weights\022\002$\001\032\002\000\000\"\002$\001(\0012Rlinear/linear_model/x_bucketized_X_y_bucketized/weights/part_0/Initializer/zeros:08\001"
        value: "\n)linear/linear_model/bias_weights/part_0:0\022.linear/linear_model/bias_weights/part_0/Assign\032=linear/linear_model/bias_weights/part_0/Read/ReadVariableOp:0\"+\n linear/linear_model/bias_weights\022\001\001\032\001\000\"\001\001(\0012;linear/linear_model/bias_weights/part_0/Initializer/zeros:08\001"
      }
    }
  }
  collection_def {
    key: "variables"
    value {
      bytes_list {
        value: "\n\rglobal_step:0\022\022global_step/Assign\032\022global_step/read:02\037global_step/Initializer/zeros:0"
        value: "\nkdnn/input_from_feature_columns/input_layer/x_bucketized_X_y_bucketized_embedding/embedding_weights/part_0:0\022pdnn/input_from_feature_columns/input_layer/x_bucketized_X_y_bucketized_embedding/embedding_weights/part_0/Assign\032pdnn/input_from_feature_columns/input_layer/x_bucketized_X_y_bucketized_embedding/embedding_weights/part_0/read:0\"p\nbdnn/input_from_feature_columns/input_layer/x_bucketized_X_y_bucketized_embedding/embedding_weights\022\002$\003\032\002\000\000\"\002$\0032\210\001dnn/input_from_feature_columns/input_layer/x_bucketized_X_y_bucketized_embedding/embedding_weights/part_0/Initializer/truncated_normal:08\001"
        value: "\n!dnn/hiddenlayer_0/kernel/part_0:0\022&dnn/hiddenlayer_0/kernel/part_0/Assign\0325dnn/hiddenlayer_0/kernel/part_0/Read/ReadVariableOp:0\"&\n\030dnn/hiddenlayer_0/kernel\022\002\017\020\032\002\000\000\"\002\017\020(\0012<dnn/hiddenlayer_0/kernel/part_0/Initializer/random_uniform:08\001"
        value: "\n\037dnn/hiddenlayer_0/bias/part_0:0\022$dnn/hiddenlayer_0/bias/part_0/Assign\0323dnn/hiddenlayer_0/bias/part_0/Read/ReadVariableOp:0\"!\n\026dnn/hiddenlayer_0/bias\022\001\020\032\001\000\"\001\020(\00121dnn/hiddenlayer_0/bias/part_0/Initializer/zeros:08\001"
        value: "\n!dnn/hiddenlayer_1/kernel/part_0:0\022&dnn/hiddenlayer_1/kernel/part_0/Assign\0325dnn/hiddenlayer_1/kernel/part_0/Read/ReadVariableOp:0\"&\n\030dnn/hiddenlayer_1/kernel\022\002\020\014\032\002\000\000\"\002\020\014(\0012<dnn/hiddenlayer_1/kernel/part_0/Initializer/random_uniform:08\001"
        value: "\n\037dnn/hiddenlayer_1/bias/part_0:0\022$dnn/hiddenlayer_1/bias/part_0/Assign\0323dnn/hiddenlayer_1/bias/part_0/Read/ReadVariableOp:0\"!\n\026dnn/hiddenlayer_1/bias\022\001\014\032\001\000\"\001\014(\00121dnn/hiddenlayer_1/bias/part_0/Initializer/zeros:08\001"
        value: "\n!dnn/hiddenlayer_2/kernel/part_0:0\022&dnn/hiddenlayer_2/kernel/part_0/Assign\0325dnn/hiddenlayer_2/kernel/part_0/Read/ReadVariableOp:0\"&\n\030dnn/hiddenlayer_2/kernel\022\002\014\010\032\002\000\000\"\002\014\010(\0012<dnn/hiddenlayer_2/kernel/part_0/Initializer/random_uniform:08\001"
        value: "\n\037dnn/hiddenlayer_2/bias/part_0:0\022$dnn/hiddenlayer_2/bias/part_0/Assign\0323dnn/hiddenlayer_2/bias/part_0/Read/ReadVariableOp:0\"!\n\026dnn/hiddenlayer_2/bias\022\001\010\032\001\000\"\001\010(\00121dnn/hiddenlayer_2/bias/part_0/Initializer/zeros:08\001"
        value: "\n\032dnn/logits/kernel/part_0:0\022\037dnn/logits/kernel/part_0/Assign\032.dnn/logits/kernel/part_0/Read/ReadVariableOp:0\"\037\n\021dnn/logits/kernel\022\002\010\001\032\002\000\000\"\002\010\001(\00125dnn/logits/kernel/part_0/Initializer/random_uniform:08\001"
        value: "\n\030dnn/logits/bias/part_0:0\022\035dnn/logits/bias/part_0/Assign\032,dnn/logits/bias/part_0/Read/ReadVariableOp:0\"\032\n\017dnn/logits/bias\022\001\001\032\001\000\"\001\001(\0012*dnn/logits/bias/part_0/Initializer/zeros:08\001"
        value: "\n*linear/linear_model/alpha/weights/part_0:0\022/linear/linear_model/alpha/weights/part_0/Assign\032>linear/linear_model/alpha/weights/part_0/Read/ReadVariableOp:0\"/\n!linear/linear_model/alpha/weights\022\002\002\001\032\002\000\000\"\002\002\001(\0012<linear/linear_model/alpha/weights/part_0/Initializer/zeros:08\001"
        value: "\n1linear/linear_model/alpha_X_beta/weights/part_0:0\0226linear/linear_model/alpha_X_beta/weights/part_0/Assign\032Elinear/linear_model/alpha_X_beta/weights/part_0/Read/ReadVariableOp:0\"6\n(linear/linear_model/alpha_X_beta/weights\022\002\004\001\032\002\000\000\"\002\004\001(\0012Clinear/linear_model/alpha_X_beta/weights/part_0/Initializer/zeros:08\001"
        value: "\n)linear/linear_model/beta/weights/part_0:0\022.linear/linear_model/beta/weights/part_0/Assign\032=linear/linear_model/beta/weights/part_0/Read/ReadVariableOp:0\".\n linear/linear_model/beta/weights\022\002\002\001\032\002\000\000\"\002\002\001(\0012;linear/linear_model/beta/weights/part_0/Initializer/zeros:08\001"
        value: "\n@linear/linear_model/x_bucketized_X_y_bucketized/weights/part_0:0\022Elinear/linear_model/x_bucketized_X_y_bucketized/weights/part_0/Assign\032Tlinear/linear_model/x_bucketized_X_y_bucketized/weights/part_0/Read/ReadVariableOp:0\"E\n7linear/linear_model/x_bucketized_X_y_bucketized/weights\022\002$\001\032\002\000\000\"\002$\001(\0012Rlinear/linear_model/x_bucketized_X_y_bucketized/weights/part_0/Initializer/zeros:08\001"
        value: "\n)linear/linear_model/bias_weights/part_0:0\022.linear/linear_model/bias_weights/part_0/Assign\032=linear/linear_model/bias_weights/part_0/Read/ReadVariableOp:0\"+\n linear/linear_model/bias_weights\022\001\001\032\001\000\"\001\001(\0012;linear/linear_model/bias_weights/part_0/Initializer/zeros:08\001"
      }
    }
  }
  signature_def {
    key: "predict"
    value {
      inputs {
        key: "csv_rows"
        value {
          name: "csv_rows:0"
          dtype: DT_STRING
          tensor_shape {
            dim {
              size: -1
            }
          }
        }
      }
      outputs {
        key: "predictions"
        value {
          name: "add:0"
          dtype: DT_FLOAT
          tensor_shape {
            dim {
              size: -1
            }
            dim {
              size: 1
            }
          }
        }
      }
      method_name: "tensorflow/serving/predict"
    }
  }
  signature_def {
    key: "regression"
    value {
      inputs {
        key: "inputs"
        value {
          name: "csv_rows:0"
          dtype: DT_STRING
          tensor_shape {
            dim {
              size: -1
            }
          }
        }
      }
      outputs {
        key: "outputs"
        value {
          name: "add:0"
          dtype: DT_FLOAT
          tensor_shape {
            dim {
              size: -1
            }
            dim {
              size: 1
            }
          }
        }
      }
      method_name: "tensorflow/serving/regress"
    }
  }
  signature_def {
    key: "serving_default"
    value {
      inputs {
        key: "inputs"
        value {
          name: "csv_rows:0"
          dtype: DT_STRING
          tensor_shape {
            dim {
              size: -1
            }
          }
        }
      }
      outputs {
        key: "outputs"
        value {
          name: "add:0"
          dtype: DT_FLOAT
          tensor_shape {
            dim {
              size: -1
            }
            dim {
              size: 1
            }
          }
        }
      }
      method_name: "tensorflow/serving/regress"
    }
  }
}
